experiments/pretrained_models/id_0510/model_ckpt_feature_extractor.pt (torch, 47359 bytes, 6 tensors)

fc_first.weight f4 [64, 44]
000000 24 1b 88 bd 3e e9 9b bd f0 56 79 bc 8d f4 11 bc
       -0.06645802 -0.07612847 -0.015218481 -0.008908403
000010 df ab 07 be b4 f9 a7 bc 48 23 27 3e cb d3 1d bd
       -0.13249157 -0.02050481 0.16322052 -0.03853206
000020 8c 6d 78 3e 97 db 8d bc 23 c2 24 bd b0 d7 38 3d
       0.24260539 -0.017316623 -0.040224206 0.04512757
000030 92 9d a3 be 4c fc 8d bd 8f 34 36 be 2e a0 e6 3d
       -0.31956154 -0.069328874 -0.17793487 0.112610206
000040 e4 ce 76 be b5 bf 20 be 60 d2 a1 be 4d de 2f 3e
       -0.2410236 -0.1569813 -0.31605816 0.17174645
000050 e6 8c 34 3e f7 12 13 3b 45 c3 97 be ed c9 9e 3b
       0.17631873 0.0022441724 -0.29641166 0.004845849
000060 c9 0a d1 be 96 15 10 3e 08 fa d3 3c 1e 9f 9b bd
       -0.4082854 0.14070734 0.02587606 -0.075987086
000070 39 54 9d bd b4 63 41 bd 1d 2c dc 3e d7 3f 2c 3e
       -0.0768208 -0.047214225 0.43002406 0.16821228
000080 c8 59 f0 3d 49 64 cc 3d df 30 51 bd 5b a6 12 be
       0.117358744 0.099800654 -0.051071998 -0.14321272
000090 35 ad 39 bc 9e b5 52 be 87 28 0b be 40 4e 19 be
       -0.0113328 -0.20577094 -0.13589679 -0.14971256
0000a0 18 a5 91 bc 23 8b 30 3e 77 9d 39 3e 06 13 b3 3d
       -0.017778918 0.17240576 0.18126474 0.08743863
0000b0 71 26 2b bd 1d 50 c1 bd 26 a8 ca 3d bf 27 1a 3d
       -0.041784707 -0.094391085 0.09895353 0.03763556
0000c0 9c 09 14 bd 9d da 67 3d fc 41 c0 bd 85 68 1a be
       -0.036141977 0.05660497 -0.093875855 -0.15078934
0000d0 23 20 08 3f b6 5d e4 3d 14 d9 6a 3d 2b 7f 6f be
       0.53174037 0.111506864 0.057335928 -0.23388354
0000e0 33 d6 96 3f 47 29 da 3c 1a a0 10 be 7d 3d 3d 3e
       1.1784118 0.02663101 -0.14123574 0.18480487
0000f0 fc cc ed bd 8b 7f 03 3d 2f 65 8d 3f 79 df bd 3d
       -0.11611363 0.032104056 1.1046504 0.0927114
000100 b2 d9 bd 3c 06 92 96 bc e1 07 d1 bd 0a c8 d9 bd
       0.023175094 -0.018380176 -0.10206581 -0.106338575
000110 b7 ff da be 00 52 41 3d de 7c de 3d a2 8b f5 bb
       -0.4277322 0.047197342 0.1086366 -0.007493452
000120 73 e9 6a 3e 2a 2d e9 3d 0a 66 21 3b 25 3d 46 3d
       0.22940616 0.113855675 0.002462747 0.048398156
000130 3a 92 1c bc 15 81 a4 bd db 22 07 3e 3b b5 1f be
       -0.0095563475 -0.08032433 0.1319689 -0.15596478
000140 10 32 7e bd 6c 59 14 be 61 37 8e 3e f7 f8 28 3e
       -0.062059462 -0.14487237 0.27776626 0.16501223
000150 4c f6 d3 3d 9d f5 88 3e f6 3e ac 3c 62 14 66 be
       0.10349712 0.26749888 0.021026116 -0.22468713
000160 8c 3c 48 bc 21 5b 0f 3e 78 44 eb bc 05 c8 d3 3d
       -0.012221467 0.13999607 -0.028719172 0.10340885
000170 ab a6 c8 bc 10 39 02 3e 4c e2 58 bd 87 82 e4 bd
       -0.024493536 0.1271708 -0.05295019 -0.111577086
000180 10 91 31 3e f7 b6 8f bb 2f 24 04 be ce db 14 3e
       0.17340493 -0.004385825 -0.12904428 0.14536974
000190 16 34 55 bf 7c 58 19 be 23 76 c1 3e da 09 05 3d
       -0.832826 -0.1497516 0.37785444 0.0324801
0001a0 78 9f a4 be ac 81 1a 3e 07 c2 a1 bf 2d 1b b0 3d
       -0.32152915 0.15088528 -1.2637337 0.08598933
0001b0 1b 11 b3 3d a0 ee 18 be c3 4b 75 be fd 51 04 be
       0.08743497 -0.14934778 -0.23954682 -0.12921901
0001c0 7a 43 08 bf e2 07 9d bd 68 d0 f6 bd 14 2c 3f 3d
       -0.5322796 -0.07667519 -0.12051469 0.046672896
0001d0 ba c9 b1 bd 49 29 bf bd a3 b9 9d bf 8e 64 52 be
       -0.086810544 -0.093340464 -1.2322277 -0.20546171
0001e0 5b 8d b6 bd 37 1b 84 bd 1e e9 b5 bd df 52 67 bc
       -0.0891368 -0.06450503 -0.08882354 -0.014118879
0001f0 72 09 02 bd 42 c6 3b bd 53 15 0d 3d e3 e1 60 3e
       -0.03174729 -0.04584337 0.034444164 0.21961169
000200 df 87 2b be 19 54 7d bd 12 f1 25 be aa 37 56 bc
       -0.1675105 -0.06184778 -0.16205242 -0.013074795
000210 88 b1 05 be 6a 20 6f 3d de 8a 01 3e f4 c4 b0 3b
       -0.13056004 0.05838052 0.1265063 0.0053945724
000220 11 17 15 be bc 9b 4b bc 3f 30 5d 3d 4a 12 5d 3e
       -0.1455958 -0.012427267 0.05400109 0.21589008
000230 9c 78 0d 3e 2e 13 7d 3d 36 54 e5 be bd 63 52 bc
       0.1381554 0.06178587 -0.4479081 -0.012841162
000240 55 9c e1 bd 9e 66 5c 3e 96 33 04 3e 77 0b 49 3e
       -0.11016146 0.2152352 0.12910303 0.1963328
000250 da fa 5e 3e 1d a4 22 3e 09 50 bb bd d9 6f 0f 3e
       0.2177538 0.15882917 -0.09146125 0.1400751
000260 fc ae 7e be b6 e9 da 3d 6a 80 0c be ae e0 ea 3d
       -0.24871439 0.10689108 -0.13720861 0.114686355
000270 c6 6b 27 bf 86 53 d7 3d ee 96 0c bc 66 96 57 3e
       -0.65398824 0.10513978 -0.008580906 0.21053466
000280 ec 6c 52 be 27 3f 29 3e 26 88 2d 3f 97 31 51 3e
       -0.20549363 0.16527997 0.6778587 0.20429073
000290 a4 24 a0 bd ad a1 8a ba 1c 44 99 3d 19 33 4d 3e
       -0.07819489 -0.0010576748 0.07483694 0.20039023
0002a0 ff 99 05 3e 04 32 e2 3d 64 f8 28 3d ce f4 b0 bd
       0.13047026 0.11044696 0.04125251 -0.08640443
0002b0 5d d0 c4 3c 69 61 2c bd 42 be 67 bd e0 86 a4 3d
       0.024025137 -0.042085085 -0.05657793 0.08033538
0002c0 a7 bd c0 3d 09 e3 af 3d f9 7a 62 3d c4 98 97 bd
       0.09411173 0.085882254 0.055293057 -0.074021846
0002d0 3e ef 9c bd 98 2e 90 bb 20 67 cf bd 44 dd 69 bd
       -0.07662819 -0.0044000857 -0.101270914 -0.05709578
0002e0 4f 93 32 3e ba 42 ce bd 6e 2f 95 3e 61 64 37 bc
       0.17439006 -0.10071321 0.29137748 -0.011193366
0002f0 71 fd ce bc 3c a2 90 3c da fa a7 3d ce 90 aa bc
       -0.025267335 0.017655484 0.08202143 -0.020821001
000300 ab bb 1c 3e 1e 35 2d 3c 12 91 04 3e 3f 64 d1 3b
       0.15305965 0.010571746 0.12945965 0.006390124
000310 49 14 87 3c b5 ac c6 3d 53 a5 83 be f4 7b fb bc
       0.016489165 0.0970091 -0.2571207 -0.030698754
000320 6e 7f 86 be cf e6 fa 3d b1 dc 36 be f0 82 ad bd
       -0.26269096 0.122510545 -0.17857625 -0.0847224
000330 3a a1 c3 bd 61 24 f2 3d cc 4b 96 3d 7e 09 16 bd
       -0.09552236 0.11823345 0.07338676 -0.036630146
000340 53 05 20 be 1b cf 1d 3e dd 8e 31 3d 3b 62 9a 3b
       -0.15627031 0.15411036 0.043349136 0.004711417
000350 9e cf 53 3e 04 2f a8 3d 6f bc 67 be a5 2b 1e 3e
       0.20684668 0.082120925 -0.22630475 0.15446337
000360 3f fb c7 3d 47 53 87 3b a5 a0 9a 3e 7b 52 6f bd
       0.09764718 0.0041298005 0.30200687 -0.05842827
000370 9c d1 1a 3d ce 13 35 3d 5f 53 8e bd 46 4d 8b 3c
       0.037797555 0.04420834 -0.069494955 0.01700462
000380 60 7c e6 bc 2f 0c f2 bd 92 14 7b bc 18 2c ae bd
       -0.028135478 -0.1181873 -0.015324729 -0.08504504
000390 d5 d4 71 3e 1e 9e 09 3e 22 db 9b 3a 60 94 c4 bd
       0.23616345 0.13439223 0.0011890868 -0.09598613
0003a0 9d 32 10 3f 4c dc 9f bc f5 67 9f be 56 a1 bc 3c
       0.5632723 -0.019514225 -0.31134 0.02302615
0003b0 7f f7 fc 3d 0c 61 aa 3d 0b 77 25 3f 6d 05 71 bd
       0.12351894 0.083192915 0.6463477 -0.058843065
0003c0 d3 f7 76 3e 24 b1 ad 3d 60 2b a6 bd 0c e2 9e bd
       0.24117975 0.084810525 -0.08113742 -0.07757959
0003d0 13 5f ba 3e d1 4a fc bd 3a e9 d6 bd 96 c3 50 3c
       0.3640066 -0.123189576 -0.10493703 0.012741944
0003e0 11 0d de bd 62 a9 c6 3b 8f 1e c8 be 7b f8 33 be
       -0.10842336 0.0060626725 -0.39085814 -0.17575257
0003f0 e3 eb 50 bd e9 74 de 3d 56 af 0f 3e 79 95 15 3e
       -0.05100621 0.108621426 0.14031729 0.146078

fc_first.bias f4 [64]
000000 51 26 b9 bd 5a a2 be bc 87 fb 87 3d 1f 41 34 bd
       -0.090405114 -0.023270775 0.06639772 -0.044007417
000010 b5 5e e5 bd 5b 1b 6c bd df 48 c9 3d ae 4a 36 be
       -0.111997046 -0.057643276 0.09828352 -0.17801926
000020 d4 d2 47 3c 5a f7 39 bd 9f 3b da bb f9 c9 1c 3e
       0.012196261 -0.04540191 -0.0066599394 0.15311421
000030 e0 7c 9a 3d 1f f8 c9 3d 9d d9 31 be 0e a3 fc 3d
       0.07543349 0.098617785 -0.17368169 0.12335788
000040 11 f1 7a 3d bc cc 77 bb 00 dc 00 be 39 11 0f 3d
       0.061265055 -0.003781124 -0.12583923 0.034928534
000050 8b 2e 3b 3e 21 1c 9c bd af 2c 0c be f0 2f 59 3e
       0.18279473 -0.07622553 -0.1368892 0.21209693
000060 6f 0c 6a 3e 2f 37 e0 3d 0a 63 bc 3d 8d a2 8d bc
       0.22856306 0.109480254 0.09198578 -0.017289424
000070 f3 dc 27 3d ac e3 90 bd 82 c4 41 bc 96 ea a2 bd
       0.040982198 -0.07074675 -0.011826636 -0.079549
000080 92 c4 c3 3c cc b1 0e bd 56 00 df bd 95 7e 6c 3e
       0.023897443 -0.03483753 -0.10888736 0.23095162
000090 64 e5 33 3e 56 84 20 bb f9 0c 3e 3e 3a 1b 74 3c
       0.17567974 -0.002449294 0.18559636 0.014899069
0000a0 06 54 c9 bc ff 07 15 3c cf ba 76 bd 99 7d 47 3e
       -0.024576198 0.009096145 -0.06023675 0.19481505
0000b0 d9 bb b2 3d ce 96 e8 bd 85 37 95 bd 88 34 1a 3e
       0.08727235 -0.11356889 -0.0728598 0.15059102
0000c0 8d 8b f1 3d d5 fb b2 3d bc 6a 68 bd 5e 14 3a bd
       0.11794195 0.087394394 -0.056742415 -0.04542958
0000d0 54 34 79 3d e7 95 dc ba 86 2e c4 3d 16 cb 98 3c
       0.06084092 -0.0016829342 0.09579186 0.018651526
0000e0 bc ad 33 bd 07 a2 d8 bd 1b dc d7 bc 6c c1 8e bc
       -0.043866858 -0.10577779 -0.026350072 -0.017426215
0000f0 ae 05 9d bd af bc a7 3c 70 de 18 3e 07 9b b0 3d
       -0.07667099 0.020475714 0.14928603 0.08623319

fc_last.weight f4 [64, 64]
000000 ea 78 02 be 7c 40 a8 3d fd f2 c0 3d da 8e 06 be
       -0.12741438 0.082154244 0.09421346 -0.13140431
000010 a9 8d be 3d f2 7a 8d bd 2c 7d d0 bd 25 40 0e be
       0.09304363 -0.069082156 -0.10180125 -0.13891657
000020 ba b1 95 3d 4e d2 3f 3e 2b 36 dc bc 6f e9 d5 bb
       0.07309289 0.18732569 -0.026881298 -0.0065280716
000030 4e 35 80 3e e8 96 aa 3d 35 ee 96 bc 43 d0 1a be
       0.25040668 0.08329564 -0.018424133 -0.15118508
000040 57 01 8b bd 2a 9f a6 3d c0 b7 23 3d 86 76 9c 3e
       -0.06787365 0.08135827 0.03997016 0.30559176
000050 c0 8f f5 bd 04 3f b0 3d c3 af a7 bd 10 bb 35 3e
       -0.11990309 0.08605769 -0.08187821 0.1774714
000060 ba d8 0b 3d 70 f7 5e 3e fd af b2 bd b3 88 82 3c
       0.034142233 0.21774077 -0.08724973 0.015934324
000070 ca ba bf 3c ef fc 77 3d 54 00 15 bd 39 22 5a 3e
       0.023404498 0.06054395 -0.036377266 0.21302117
000080 4c ad ec 3d 6c 3c f3 bd 5e d1 b5 3d 76 1e 08 3e
       0.11556491 -0.11876759 0.08877824 0.1329287
000090 a2 67 53 3e 17 2c e2 3d af 3f 3f be d6 18 6d be
       0.20645002 0.11043566 -0.18676637 -0.23154005
0000a0 6b 79 14 be da 2a 24 3e 38 cc 08 bd d1 4b 23 be
       -0.14499442 0.16031972 -0.033397883 -0.1594689
0000b0 32 46 f1 3d bb 1a 9b bd 1c d5 c3 3c 69 cf 48 bd
       0.11780967 -0.07573458 0.02390533 -0.049025927
0000c0 e9 7b 3b be 64 5c 1d be 6b 72 69 3e a7 03 32 3d
       -0.18308987 -0.15367275 0.22797553 0.043460514
0000d0 9d 86 31 bd a6 98 26 be fa 6f 83 bd 13 54 58 bd
       -0.043341268 -0.16269168 -0.06417842 -0.052814554
0000e0 85 46 ae 3d a3 e0 8e bd 45 82 5e bc 0d 0b 6d 3e
       0.08509544 -0.0697644 -0.013580863 0.23148747
0000f0 15 a3 22 be 93 0f 8c be 3b 33 74 bd a3 e3 14 bd
       -0.15882523 -0.27355632 -0.05961917 -0.036349904
000100 ee 81 ee bc e1 a6 a0 bd 53 71 49 3e a4 85 3b be
       -0.02911469 -0.078443296 0.19672136 -0.18312699
000110 b1 7e b1 3d e2 3a dc 3c 05 34 bb bd 35 a5 79 bd
       0.086667426 0.026883546 -0.09140781 -0.06094857
000120 9f de 66 3d 8a 98 6c 3c a4 d6 dc 3d 60 6a d9 3c
       0.05636465 0.014440665 0.10783127 0.026539981
000130 e0 5f 9c ba c8 84 0f bd 1c de 22 be 84 8f 1d 3d
       -0.0011930428 -0.03503874 -0.1590504 0.038466945
000140 bf 86 6c bd f7 71 87 be 35 8d c2 bd 7a eb 12 be
       -0.05774569 -0.26454136 -0.09499589 -0.1434764
000150 c5 51 3f 3e c4 f0 23 3e 39 3f d6 bd bc 09 5b be
       0.18683536 0.16009814 -0.104612775 -0.21390432
000160 c2 f6 36 be 3d 17 03 3d 27 3a 47 3e a4 8f 5e bd
       -0.17867568 0.032004584 0.19455777 -0.054336205
000170 74 d4 e8 bd 34 e2 33 3e 78 14 ee bc 54 61 e9 bd
       -0.11368647 0.17566758 -0.029062495 -0.11395517
000180 61 1e b1 3c 72 25 7d 3e 0f cf 72 bd bb 09 f9 bd
       0.021620931 0.24721316 -0.059279498 -0.12160059
000190 38 73 56 be f0 58 36 bd cd 5a 0b bd f6 83 9f 3d
       -0.2094239 -0.04451841 -0.03402214 0.077888414
0001a0 09 d4 08 bd 0f ce 03 3e 96 fd f7 bc 7b 5d ea 3d
       -0.033405337 0.12871574 -0.030272286 0.11443611
0001b0 23 a6 29 3e 91 56 40 3e d3 bd 88 3e fa 60 97 bd
       0.16567282 0.18783022 0.26707324 -0.07391544
0001c0 da 9f f8 3d ab 6a f9 bb 72 88 25 be c2 dd 16 be
       0.12139864 -0.0076115928 -0.16165331 -0.14733031
0001d0 18 bd 48 be cf a8 95 3d a9 b3 2d 3e 13 79 42 bd
       -0.19603384 0.07307588 0.16963066 -0.047478747
0001e0 e2 93 13 3d dc b3 8b 3d 71 d3 42 be 91 00 66 be
       0.036029704 0.06821415 -0.19025971 -0.22461154
0001f0 ba b0 09 bd c4 46 80 3e f1 8e 77 be 09 c9 f4 ba
       -0.033615805 0.2505399 -0.24175622 -0.0018675636
000200 d8 09 0c 3e 7b 80 02 3e 6d ea 79 3d 75 6e 14 bd
       0.1367563 0.12744324 0.06101458 -0.036238153
000210 3b a5 6c 3e 7f 61 3a 3e 21 dc a9 bd 9f 62 52 3e
       0.23109905 0.18201254 -0.082939394 0.20545433
000220 bb 4e 3e 3d 13 4c 73 be 57 f5 49 3e 4e d3 01 3d
       0.046461802 -0.23759489 0.19722496 0.031695656
000230 e3 46 4f 3e 16 69 f9 3d 18 83 69 3c b1 20 8d 3d
       0.20241885 0.12178247 0.014252447 0.06891001
000240 26 f4 4a be 6e 52 ec bb c0 4b d8 3d fa 21 73 3d
       -0.19819698 -0.007211975 0.10561323 0.059358574
000250 51 96 18 be 71 ad 00 3d 30 d0 21 3e 42 9e 76 bd
       -0.14901091 0.031415407 0.15802073 -0.06020952
000260 9a b0 ae bd c7 27 25 3e 0a 3a 4a 3c c5 56 2a be
       -0.08529778 0.16128455 0.012342939 -0.16634662
000270 4c 39 0a 3d f3 c8 35 be 66 dd 1a bd d1 0d 5d bc
       0.03374605 -0.17752437 -0.0378088 -0.013492064
000280 67 ec 1e be 71 38 b8 3c f6 de da 3d 7b c4 38 be
       -0.15519868 0.02248785 0.10687058 -0.18043701
000290 8b 31 9f 3c a7 54 2b 3e e0 b4 29 bd ad 15 04 3e
       0.019432804 0.16731511 -0.04143226 0.12898894
0002a0 82 e0 57 3e 18 01 9d bc 80 15 ea bd c6 df 5d be
       0.21081737 -0.01916556 -0.11429882 -0.21667394
0002b0 40 00 2c 3e 50 04 4f 3e 6c d0 51 3e b6 3a 3d bd
       0.1679697 0.20216489 0.20489663 -0.04619857
0002c0 d2 63 83 3d bc 48 00 bc 60 c4 13 3e 18 bb ac 3e
       0.064155236 -0.007829841 0.1443038 0.3373649
0002d0 9a 81 ec bd cd 16 00 3c 61 d7 e3 bd 7e f7 6e bd
       -0.11548157 0.007817936 -0.11125065 -0.058341496
0002e0 74 3f eb bd fd 3b e6 3d 87 9b 65 3d d2 fc c3 3d
       -0.11486712 0.112419106 0.056056526 0.09569706
0002f0 d9 b3 50 bc f2 45 48 3d a2 47 9d 3c 3d bc 77 bd
       -0.0127381915 0.04889483 0.019199196 -0.060482252
000300 37 84 08 3e 34 88 1d 3d 2b 10 1f bd 59 4a 0f be
       0.13331686 0.03845997 -0.03883378 -0.13993205
000310 0d 33 a6 3d 9f 99 71 3d 62 d0 f3 bd 9f 11 71 be
       0.08115206 0.058984395 -0.1190498 -0.23541878
000320 6f 70 65 3c b4 c3 98 bc c6 6d 70 bd cc bd 72 3e
       0.014003857 -0.018648006 -0.058698438 0.23705214
000330 22 9d a5 3d f1 ae 8b bb aa 31 ac bd 96 51 2e be
       0.08086611 -0.004262798 -0.0840791 -0.1702331
000340 8b 10 8d bd 36 2f b4 bd 05 02 1a be 64 bd 87 3e
       -0.06887921 -0.08798067 -0.15039833 0.2651168
000350 3c f7 9b 3d d9 0a 1a be e9 0c 07 be 4b d5 bd bd
       0.076155156 -0.150432 -0.13188519 -0.09269198
000360 a4 05 39 bc 49 b4 21 3e 97 90 e7 bc 7c c4 fa 3d
       -0.011292849 0.1579143 -0.028267188 0.12244508
000370 bb 41 df bc cd 04 6c bd 72 7a e5 3d ca 76 d5 3c
       -0.027253022 -0.057621766 0.11204995 0.02605762
000380 4e c3 70 3e 03 8e 00 be 90 c3 88 3d 65 87 04 bd
       0.23512003 -0.12554173 0.066779256 -0.032355685
000390 05 46 64 3d 45 d9 9e be 3b b6 36 be 7b 00 44 3e
       0.05573084 -0.31025138 -0.17842953 0.19140808
0003a0 14 db 62 be 79 0b ba bd 9c db 3d 3d 85 3e 04 3d
       -0.22153884 -0.090842195 0.046352014 0.032286186
0003b0 8b 65 a1 bd 13 99 01 be 7b c9 30 be de 9c cb 3d
       -0.07880696 -0.1265605 -0.17264359 0.099420294
0003c0 27 2b e7 bd 7a d4 e5 bd db 3e d3 3d 46 60 df 3c
       -0.112875275 -0.11222167 0.10314723 0.027267586
0003d0 64 a6 e3 ba ee df 6c 3e 7c 39 3b 3e 8f 13 66 be
       -0.0017368314 0.23132297 0.18283647 -0.22468399
0003e0 45 19 3f 3e a1 f7 21 be 5b f6 f8 bd 04 3c ee 3d
       0.18661983 -0.15817119 -0.121563636 0.11632541
0003f0 b6 b8 78 3e 3a 8c 09 be 67 ef 6a be 4d 06 83 3d
       0.24289212 -0.13432398 -0.22942887 0.06397686

fc_last.bias f4 [64]
000000 80 31 b4 3d 63 9c 47 3d ea 91 bd bd 23 a3 5c 3d
       0.08798504 0.048733126 -0.092563465 0.053866517
000010 37 34 76 bc 8a e1 99 3d 4f b9 ff 3d 76 de 9a bd
       -0.015027097 0.07513721 0.12486517 -0.07561962
000020 03 17 58 bb d0 84 c3 3d eb fe 37 bd 38 0d 9a bc
       -0.00329727 0.09546816 -0.044920843 -0.018805131
000030 56 10 68 bd 69 ea db 3d e7 c4 a7 3d 1f 8f 95 bc
       -0.056656204 0.107380696 0.08191853 -0.018256722
000040 9b 64 63 3d 4f 2d a4 bc f2 a4 33 3d 6e 66 97 bd
       0.055515867 -0.020041136 0.043858476 -0.07392584
000050 21 7f b1 bd 73 83 93 3d 89 a7 9e bc 73 9d c4 3c
       -0.08666826 0.07202806 -0.019366996 0.024000859
000060 33 76 a8 3d d1 e7 c3 3d ee f8 6f 3d 35 ed 1a 3d
       0.0822567 0.095657 0.058587007 0.037823875
000070 3e df 66 bc f7 90 16 3e c3 08 a1 3c ad df 95 3d
       -0.014091311 0.14703737 0.019657498 0.073180534
000080 2a 41 fb bd 18 ee b8 bd 1c b5 d4 bd b1 3d a5 bd
       -0.122682884 -0.09029788 -0.10386106 -0.08068407
000090 71 6f 12 bd d2 39 03 3e d9 a2 b5 3c c4 1e 0b 3c
       -0.03575081 0.12815025 0.022172378 0.008491222
0000a0 6d f0 11 bd 14 e1 ff bc d7 87 25 3d 9e 2f 58 3d
       -0.03562968 -0.031235255 0.04041275 0.052779786
0000b0 a4 ee 83 bd d4 8a c5 bd 93 5f af 3d d6 2f 52 bb
       -0.064420015 -0.0964562 0.08563151 -0.003207197
0000c0 02 1e 13 3d 38 fc 47 3d 6f ba 19 3d 55 2e a9 3c
       0.03591729 0.04882452 0.037531313 0.020651976
0000d0 0b d1 cc bd 36 59 ee 3d 24 3c ce 3b 04 6e 5a bd
       -0.10000809 0.116381094 0.0062937904 -0.053327575
0000e0 4d 9c 93 3c a8 19 2c 3e eb 5e e4 bc f8 a8 e9 bb
       0.018018866 0.16806662 -0.027877292 -0.0071307383
0000f0 6e 4e d9 3d 97 b1 23 3d 95 86 d1 3d 3c 6a ae 3c
       0.106106624 0.039964285 0.102307476 0.02129089

layers.1.weight f4 [64, 64]
000000 78 72 39 3e fa 2a 4f 3e 66 b3 2a 3d 5b 91 1e 3c
       0.18110073 0.20231238 0.041674994 0.00967821
000010 7f 61 22 3e bb 45 33 be 7a 53 33 3e 22 84 fc 3d
       0.15857504 -0.17507069 0.17512313 0.1232989
000020 e8 88 6b 3d e8 fd 69 bd d0 b9 ae bd 4c 0f 15 3d
       0.05750361 -0.05712691 -0.08531535 0.03639154
000030 74 b2 7a 3d a2 d4 ac 3d a9 76 25 bd 18 53 0e 3d
       0.061205342 0.08438994 -0.040396366 0.034747213
000040 cd fe 2e 3e 9e 15 bf 3d 29 9c 36 be f7 85 ae 3d
       0.17089386 0.09330295 -0.17833008 0.085216455
000050 86 1d 1c 3e a7 d9 09 3e 7d 23 85 bd 48 e0 f2 bd
       0.15245637 0.13461934 -0.065009095 -0.118591845
000060 20 66 84 3e ae 10 02 3e d7 ac 17 be 40 20 1a 3c
       0.25859165 0.12701675 -0.14812027 0.009407103
000070 56 46 a4 3c 75 9a 36 3d 0d d6 40 3c 16 44 e4 3c
       0.02005307 0.044580895 0.011769784 0.027864497
000080 f9 42 02 3d be 83 ab bd e2 e0 3e 3d 29 48 cc 3d
       0.03180215 -0.08374737 0.046601184 0.09974701
000090 79 c3 26 bd cf f2 6a 3d 75 9b ab bd 03 15 a7 3d
       -0.04071376 0.057360467 -0.083792605 0.081583045
0000a0 2d 52 38 3d bc 1c 6d 3d 84 db 82 3c 1d 6f c9 3d
       0.045000244 0.05788873 0.015973814 0.09835646
0000b0 39 2c 8b 3c 9f 68 8c 3d 13 77 cf bb 23 10 04 3e
       0.01698886 0.068558924 -0.0063313334 0.1289678
0000c0 09 63 90 bd 3e f2 29 be 9c 91 b8 3c 58 0b d7 3e
       -0.070501395 -0.16596314 0.02253037 0.42000842
0000d0 18 cf 80 bd 02 9f 26 3e 56 fd 16 3e 8f 32 95 bd
       -0.062895 0.16271594 0.14745077 -0.07285034
0000e0 19 ad d9 3d 1e 92 44 bd f3 8b b6 3d c0 af a5 bd
       0.10628719 -0.04799091 0.08913412 -0.08090162
0000f0 cc 0d 6f 3d ff c2 38 3e 7f cc 92 3c b4 f2 cb bd
       0.058362767 0.18043135 0.017919777 -0.09958401
000100 b7 d0 ac 3d d2 53 81 3d cf 6a 7e bd b4 f6 12 bd
       0.08438247 0.063148156 -0.06211358 -0.035879806
000110 77 5e ae 3d 9a 38 dd bd 20 32 50 3d 0f 0f 1c bd
       0.085141115 -0.108018115 0.050829053 -0.0381003
000120 99 8d 89 bd e6 db 0f bd 28 26 5d ba b8 3a 31 3d
       -0.06716461 -0.03512182 -0.00084361667 0.04326889
000130 a6 3d 09 3e 40 e8 80 be 25 be 91 3c 07 cb 23 be
       0.13402423 -0.25177193 0.017790863 -0.15995418
000140 40 c6 b7 bd 17 bc 75 3b a3 da 0c bd 59 f2 09 3e
       -0.0897336 0.0037496143 -0.034388196 0.13471355
000150 57 3a 74 be e0 d1 5a 3c dc 96 bc bd c3 92 1f bd
       -0.2385038 0.013355702 -0.09208462 -0.038958322
000160 a7 ec 9b 3e ac 27 18 be 31 88 fe 3c 36 b4 2f 3d
       0.3045399 -0.14858884 0.0310708 0.042896472
000170 01 d4 83 bd d4 40 be 3d 9e 45 42 3c 28 ec 94 bc
       -0.06436921 0.09289709 0.011857418 -0.018179014
000180 61 80 27 bd 3e d5 3a be 1b 4f 96 3d f9 47 05 be
       -0.040893916 -0.18245408 0.07339307 -0.13015737
000190 d8 81 fb 3e 07 f4 27 be c6 ff 90 be 37 21 07 bd
       0.491225 -0.16401683 -0.2832014 -0.03299066
0001a0 c7 7f 6a be ab de 64 bc 20 b6 dc 3c c0 8c bd 3d
       -0.22900306 -0.013969104 0.026942313 0.092553616
0001b0 e8 79 42 be fa 8a b5 3d ef ee 38 3d 09 77 af be
       -0.18991816 0.08864398 0.04514974 -0.34270504
0001c0 7b 63 a2 bd bb 97 13 be 9d 37 14 3c b1 7c 33 bd
       -0.07929131 -0.1441335 0.009046462 -0.043820087
0001d0 88 c1 d0 be 68 20 a7 3d 74 5a 22 3e 19 81 aa bd
       -0.40772653 0.08160478 0.15854818 -0.08325405
0001e0 0d 92 1b 3d e3 45 72 bd 4d 85 0d be e5 d5 24 be
       0.03798108 -0.05914868 -0.13820381 -0.1609722
0001f0 c0 7b dc 3d db 3b 15 be 92 c3 13 be 68 de 9f bd
       0.10765791 -0.14573614 -0.14430073 -0.078060925
000200 1b 69 e3 3c b5 e3 85 3d 7d 55 b3 3e 26 a4 4e be
       0.02776008 0.06537572 0.3502616 -0.20179805
000210 2a 97 88 bd 9c 24 81 3c d5 cb de bc ab 06 5e bd
       -0.06669457 0.015764527 -0.027196804 -0.054205578
000220 e9 80 04 3d 20 63 5d 3d bb 1b 4a 3d a1 6b 7e 3c
       0.0323495 0.05404961 0.049342852 0.01552859
000230 91 81 3f 3c 2c 01 9c 3d 6f 81 ef bc 17 22 fa 3d
       0.011688606 0.07617411 -0.029236523 0.12213533
000240 fa 6f d1 3c 44 95 dd 3d fe ec 0b be 3b d1 ed bc
       0.02556609 0.10819486 -0.13664624 -0.029030433
000250 03 13 89 bd d8 12 29 be ec 63 7b 3d 7e 02 b8 bd
       -0.06693079 -0.16511095 0.06137459 -0.0898485
000260 6a e0 c3 3d 5f 19 6e 3d 9d 39 7c 3d 28 a6 ac 3d
       0.09564288 0.058129665 0.06157838 0.08430129
000270 c4 96 8b 3c 46 95 1c 3c 38 60 91 3d 25 8c f3 3c
       0.017039664 0.009557074 0.070984304 0.029729912
000280 b9 bc 35 3c 68 29 c9 3c a5 31 16 3d 78 eb 35 3e
       0.011092358 0.024555877 0.03666844 0.17765605
000290 c2 0c d9 3b 7f 95 71 3d f7 d4 1c 3e 28 cd e8 3c
       0.0066238353 0.05898046 0.15315615 0.028418139
0002a0 1f 85 40 3e fc 76 a4 bb 63 df 80 3e 8f 49 97 bb
       0.18800782 -0.005019067 0.2517043 -0.004616923
0002b0 84 63 ee bb 05 34 b0 bd e9 f1 35 3d 52 da 18 be
       -0.007275047 -0.08603672 0.044420157 -0.14927033
0002c0 75 99 14 3e 1c 63 84 3b 9b 5a 9b 3e 46 a4 04 bf
       0.14511664 0.004040135 0.30342564 -0.5181316
0002d0 9e 40 06 3c bb c9 a1 3d 5e 6a f7 bc b8 9d 7f bd
       0.008194117 0.07899805 -0.030202087 -0.06240627
0002e0 39 d5 a6 3d 05 fa bf bd c3 6f d3 3d 15 32 a4 3d
       0.08146138 -0.09373859 0.10324051 0.08017365
0002f0 32 71 8e 3b 46 26 c5 bd 8d 66 9a bc 71 a2 45 3c
       0.00434699 -0.09626441 -0.018847728 0.012062655
000300 bf d2 72 bd 3b 18 4d 3e 38 5f 0e 3d b0 78 06 3f
       -0.059283014 0.20028774 0.034758776 0.52527905
000310 32 8e 06 be 80 8e 52 be e8 c1 6b 3a 03 b4 e7 3c
       -0.1314018 -0.20562172 0.0008993433 0.028284078
000320 76 03 d3 3d eb 24 78 3e 2e fb 47 3d 7f bf 7f 3e
       0.103033945 0.24232833 0.048823528 0.24975394
000330 12 a0 cc 3c 05 eb e8 bc 07 f9 da bc c7 50 ac 3d
       0.024978671 -0.028432379 -0.026730074 0.084138446
000340 56 e7 3d 3e e5 83 52 3d fd fe ac 3d 59 02 a1 3a
       0.18545279 0.051395316 0.08447073 0.0012284025
000350 58 5a 98 3e 7e 49 dd 3c 95 3a 01 3d 58 b3 72 3e
       0.29756427 0.027012583 0.03155001 0.23701227
000360 d8 36 cb 3d 82 85 83 3e bf 34 0e bb ec b3 32 bd
       0.0992257 0.25687796 -0.002169892 -0.043628618
000370 ea 89 79 3e 14 ec cb 3d b8 1e ac bd bd 7a 01 3e
       0.24369016 0.09957138 -0.08404297 0.12644477
000380 f4 6b 39 bd 9d 66 99 bb 58 9c 7d 3d d9 b1 ee 3d
       -0.045268968 -0.004681422 0.06191668 0.116550155
000390 ac be 1f be 27 95 c4 3d af 64 78 bd 47 e3 1b bd
       -0.1560008 0.09598761 -0.060642894 -0.038058545
0003a0 15 cb 26 3e ca d0 03 be 8e 0a 07 3e 4e 2a 4a 3e
       0.16288407 -0.12872615 0.1318762 0.197427
0003b0 50 dc aa bd 8a ff 7b 3d ae 8f 0a be ec e8 f4 3d
       -0.083428025 0.061522998 -0.13531372 0.11958489
0003c0 56 ac bf 3d 81 ef 7b 3d 57 a6 79 3e 49 14 25 3e
       0.09359042 0.061507706 0.2437986 0.1612102
0003d0 e1 56 ca bd dd c7 45 bd 74 84 c7 3d 0c fe 79 bd
       -0.09879852 -0.048286308 0.0974206 -0.061033294
0003e0 d7 38 51 ba 6b 6c 12 be a5 b2 0c bd b6 1f 39 3d
       -0.0007981187 -0.1429917 -0.034350056 0.045196258
0003f0 35 fe 25 bc 30 e6 8f bd cc f8 58 3d 13 04 41 bd
       -0.010131408 -0.07026327 0.052971646 -0.047123026

layers.1.bias f4 [64]
000000 c3 bc a5 bd 17 78 00 3d 53 d6 e6 bd af c7 d8 bc
       -0.08092644 0.031364527 -0.11271348 -0.026462404
000010 8d 79 12 bd 42 1d b3 3d 08 a1 9c 3d cf 92 07 be
       -0.03576045 0.08745815 0.07647902 -0.13239597
000020 25 8f d8 3d 61 0f fc 3d 0f e3 92 bc e8 49 a0 3d
       0.10574178 0.12307621 -0.017930536 0.078265965
000030 3d e2 65 bd d8 0c 7e 3c 39 2c e3 bc ca 5c ec 3c
       -0.05612396 0.015505992 -0.027731048 0.028852839
000040 3e 75 fb 3d 0f c4 a2 bb 0c dc 86 bd b0 18 0e 3d
       0.122782215 -0.0049672197 -0.06584939 0.034691513
000050 ab 91 96 3c bb db d5 3d 67 81 d9 bd 63 52 4a bc
       0.018380007 0.10442301 -0.10620385 -0.012348744
000060 b4 1c b8 bc 52 08 0f be 51 6e d9 3c ec 9f 1a bd
       -0.022474624 -0.13968018 0.02654186 -0.03775017
000070 60 63 62 bd cb dc 27 3e 71 7d 16 bd 68 6c 8a 3d
       -0.055270553 0.1639282 -0.036740724 0.06758958
000080 49 4b 86 3d f4 5c 9f bd 99 b4 f9 bd 3f a4 53 3c
       0.06557328 -0.07781401 -0.121926494 0.012917577
000090 66 bf c0 bc 13 15 ac 3c ef 96 a1 bc ef 30 93 3d
       -0.023528766 0.021006143 -0.019725291 0.07187068
0000a0 cd ab c2 bd e4 e4 36 3e d3 97 40 bd 43 fb 72 3d
       -0.09505425 0.17860752 -0.04701979 0.059321653
0000b0 c3 05 df bc 0c e4 15 bd 64 33 56 bd 73 61 90 bd
       -0.027224427 -0.036594436 -0.052295104 -0.07049837
0000c0 f6 d5 cb bd 07 43 eb bb 31 f3 19 bd 45 ef 05 3d
       -0.09952919 -0.007179621 -0.03758544 0.03269889
0000d0 65 2a 44 bd 43 28 3b 3c 46 a2 c5 bd 08 71 a6 3c
       -0.047891993 0.011423173 -0.09650092 0.02031757
0000e0 0a ad 2e 3d c9 ea 4a 3d 21 7b 39 3c df 5f af bd
       0.04264549 0.049540315 0.01132086 -0.08563208
0000f0 23 bb ac 3a ed e7 a8 bd cf d3 4d 3b 2f fe 1e 3d
       0.001317833 -0.08247361 0.0031406765 0.038816627
