experiments/pretrained_models/id_0384/model_ckpt_feature_extractor.pt (torch, 52991 bytes, 6 tensors)

fc_first.weight f4 [64, 66]
00000000: cd68 cdbd 6f24 d73d 4e28 e5bd 54c1 09bc
00000010: 5bcd adbb 78b3 febd 6f53 a8bd 17f4 6c3d
00000020: 1b48 5f3d 628a 05bd f20e d23b 9449 cd3c
00000030: 1708 a2bb b9a0 30bb fcbb 9cba 7e24 aabc
00000040: f40a 073c 14a3 97bb c984 f43d b5cf bfbb
00000050: 6b8c 793d 8dba fc3a 8bd4 4cba c717 4d3b
00000060: ab99 cdbb eb5a a4b9 338e 633c 1e3a 063e
00000070: 7311 d4bb 88e3 0cbe 8aba ceb9 a05d 85ba
00000080: ae70 28bc a211 14bd 7f37 fe3b b534 91bb
00000090: 148d 1e3c 5571 e5bb 87c8 e8bd 9dc1 acba
000000a0: 6c59 07bc 36e8 18be 2b11 5b3d d092 d13a
000000b0: 779b 0ebe fa78 763d 69b4 0239 9e36 27bd
000000c0: d6b2 173d bbe8 97bc 1148 54bd dc38 053e
000000d0: 9205 0f3d ecbb 5cbd 3a51 d1bb 36d1 c63b
000000e0: c3bd 923c 44c6 813d 68cf a43d 3dda 083c
000000f0: 8efd 413c 58c8 8b3c 7cd3 b2bc 2acb 71bd
00000100: 5900 8e3e 6bda 67bc 61f7 ce3b f08f 4b3d
00000110: 1ecb 63bd 8e19 9f3d 191d 623d 4c8a 613d
00000120: d431 103c e8d1 8ebc d6cd fa3d 53cc eb3d
00000130: c7c5 f43b bb66 bc3b 6588 cdbd 5a79 f4bd
00000140: d74a 7cbf 8b81 1c3f cf11 6ebd 6d5d f93d
00000150: c204 3f40 e452 ccbe 7290 0340 6ab7 83bd
00000160: dbd4 9fbd 4e6a 373e 7c4a 643e 13e0 353c
00000170: 75c8 083e b260 cf3f 5e74 86be e8df 403f
00000180: 3d4b 50bd 394d 33bd 4ae0 023e dda0 e13e
00000190: 0b2c 7abd fb06 2cbe 5014 e43f b43c 6bbd
000001a0: 950e b93e b24f 3b3f c88a 3dbe a4a9 593e
000001b0: b497 483f 33b2 a13d a269 e73e 7b4c b23d
000001c0: a2bc 8fbc 96ca 923d 6673 313e 6174 73bd
000001d0: 2383 9c3d f682 653e f083 b83d 346f 2e3e
000001e0: 3613 d2bd 792f e33b a673 97bd f980 c03c
000001f0: 7b09 d43c b1a9 193c 4fb7 f03d 2b07 c9bd
00000200: ae0a 13be abd0 633d 48c7 e2bd bad9 523d
00000210: 4d58 e5bb 2c5b c63d e2eb f23d f6e9 34bd
00000220: a399 28bd 2dea d83a b243 73bd 59ae 443d
00000230: e484 aabd a93c 493a 3852 e2bb a017 18bd
00000240: 492b abbb 2b44 06be 2774 4e3f 97ee 833e
00000250: cbb9 8d3c 1363 65bf 3187 be3f f3fe 243d
00000260: 3eb0 95bf 7555 7dbd 2d65 d73c 1869 49be
00000270: 5fd9 5dbd 5749 593d f741 bcbd 75e4 a93e
00000280: a02d 2a3d 3ed1 d2be 513a 10bd e33b c13b
00000290: fce2 09be dd46 d73e e9c3 8f3d bf12 25bf
000002a0: f726 23bf 8a81 01ba 4948 28be d1ea 09be
000002b0: 726a 463c da62 2cbd d8ad 26bd 6137 c73b
000002c0: 5aec 92be 64b4 e2bd 9aa6 b5bb e7fa 913b
000002d0: c8af 84bd 6627 e43c 3c05 0e3e 39a8 843d
000002e0: 4117 ebbc 0b24 2cbd 35e1 b5bd 9f3d 953c
000002f0: 7135 273d 5810 c23d 8232 b83d e9e0 84bc
00000300: b58c ac3c 7142 adbd b732 b1bc 09a5 2dbe
00000310: b894 4a3e 4517 04bf 790a 6fbd 02a6 dabb
00000320: aa23 d2bd 3fe5 863d 7527 6b3d ea81 d03c
00000330: 7f65 db3d 44fc a3bd 3442 573c 7f96 3dbd
00000340: 36b4 d6bb 252c 123b ea20 f33c 5e03 d93b
00000350: c851 2cbd 9438 e8bb e66f 173b 0f36 323c
00000360: 3658 2e3e f01c 163c fd56 3e3d dc6b 313c
00000370: 40a2 1e3b 42bc b8bb 6eaa a4bb 6f98 b1ba
00000380: 7478 473c 43d5 a23d 85c7 b4ba 4e7f 6e3a
00000390: 214a 853c 0dae 743b ea77 0d3b 58dc 8ebc
000003a0: 7778 d53a e91c 313c c335 e0bd 4268 8fbb
000003b0: 788c d53c fa75 61bc c442 9d3b 4559 c83c
000003c0: 0399 b53c 3ddc d73b 6c5f d3bc b01d 85bb
000003d0: 0e2f 82ba 99f3 023c 61b2 93be f706 f53d
000003e0: 7a58 bb3d 452c 3f3e 0641 9c3d 8f97 70bc
000003f0: 98fc 1cbf 34e9 853e 3aa5 8cbe 51f0 773d
-0.10029755 0.10504996 -0.11189328 -0.008407909 -0.0053040213 -0.12436575 -0.08219039 0.05784997
0.054512125 -0.032602675 0.006410473 0.025059499 -0.004944812 -0.0026951267 -0.0011957879 -0.020769354
0.0082423575 -0.0046275947 0.11939389 -0.005853618 0.06092493 0.0019281671 -0.0007813654 0.003129469
-0.006274422 -0.00031348257 0.013888883 0.13108107 -0.0064718067 -0.13758671 -0.00039430364 -0.0010174997
-0.010280771 -0.03614963 0.0077580805 -0.004431332 0.00967719 -0.0070020356 -0.113663726 -0.001318026
-0.008261066 -0.14932331 0.05348317 0.0015989188 -0.13926493 0.060173966 0.00012464974 -0.04082357
0.037035786 -0.018543592 -0.05182654 0.13009971 0.03491742 -0.053890154 -0.006387857 0.0060674204
0.017912751 0.06336644 0.08047372 0.008352813 0.011840237 0.017063305 -0.02182936 -0.059031643
0.2773464 -0.014151196 0.006316111 0.049697816 -0.05561363 0.07768546 0.05520353 0.05506353
0.008800942 -0.017434075 0.12246291 0.11513581 0.007469866 0.005749551 -0.10035781 -0.119372085
-0.98551697 0.61135167 -0.058122452 0.12176023 2.9846654 -0.3990699 2.0556912 -0.06431468
-0.07804271 0.17911646 0.22294039 0.011100787 0.13357718 1.6201384 -0.26260656 0.75341654
-0.050853003 -0.043774817 0.12780872 0.4406804 -0.06107716 -0.16799538 1.7818699 -0.057430938
0.36143938 0.7316848 -0.18509972 0.21256119 0.7835648 0.07895317 0.4519778 0.08705994
-0.017546002 0.071675465 0.17329177 -0.05943716 0.076422 0.22413239 0.0900954 0.17034608
-0.102575704 0.0069331494 -0.07395105 0.023498999 0.025883427 0.0093788365 0.11753713 -0.0981582
-0.14359543 0.055618923 -0.11073166 0.05147717 -0.0069990517 0.096853584 0.11861397 -0.044168435
-0.041162144 0.0016549282 -0.05939073 0.048017833 -0.08326128 0.00076765806 -0.006906774 -0.037131906
-0.005223666 -0.13111942 0.80645984 0.25767967 0.017300507 -0.896043 1.4885007 0.0402822
-1.169441 -0.061849076 0.026293362 -0.19668996 -0.05416238 0.053048458 -0.09192269 0.3318211
0.041547418 -0.41175264 -0.035211865 0.0058970316 -0.13465494 0.42046252 0.07019789 -0.6448173
-0.6373133 -0.00049402623 -0.16433825 -0.13468482 0.0121103395 -0.04208646 -0.040693134 0.0060795997
-0.28695947 -0.11069563 -0.005543542 0.0044549587 -0.0647884 0.027850818 0.13869184 0.064773984
-0.028697612 -0.04202656 -0.088808455 0.01821786 0.04082245 0.094757736 0.089940086 -0.016220527
0.021063188 -0.08459938 -0.021630628 -0.16957487 0.19783294 -0.51598006 -0.058359597 -0.0066726217
-0.10260709 0.06586694 0.057410676 0.025452573 0.10712718 -0.080071 0.013138343 -0.046286102
-0.0065522445 0.0022304144 0.02967878 0.006622716 -0.04207018 -0.0070868228 0.0023107468 0.010877146
0.17025837 0.009162173 0.046469677 0.010828938 0.0024205595 -0.0056376765 -0.0050251996 -0.0013549457
0.012174714 0.07950833 -0.0013792372 0.00090979494 0.016270699 0.0037335188 0.0021586367 -0.017439052
0.0016286512 0.010810115 -0.10947754 -0.004376442 0.026067957 -0.013761038 0.004799219 0.02445663
0.022167688 0.0065875337 -0.025802337 -0.004062377 -0.0009932236 0.0079926485 -0.2884703 0.11964219
0.09147735 0.18669231 0.0762959 -0.014684572 -0.6132293 0.26154482 -0.27469808 0.060531918

fc_first.bias f4 [64]
00000000: 53d4 30bd 3099 cf3d 6ffd 93bb 01ff fd3b
00000010: 211c 09be 8f83 c73d 8d8c 023d 9fc7 95bd
00000020: e04c 24bd 41db a73d 47ae 243e 7c1d 4abc
00000030: 3c91 66bd 6d5c 09bf 9bef 983b f2fb 0e3e
00000040: 913c 2cbe 1ee4 e33d b9d0 413d d060 cf3c
00000050: b7d4 b93d af16 d53d ec21 0cbd 93fd 14bd
00000060: 4fbc b8bd 0668 0e3e c5c5 86be 6b13 303e
00000070: 6aa7 cc3d c425 86bb a236 92bd 48e9 32bc
00000080: c444 103c 2b54 b7be 5e09 c0bc e4fe 6a3e
00000090: 6582 0bbc 9d8a 843d 8699 0fbe e245 2c3e
000000a0: 5b58 933d 916f 553d 8502 92ba eca9 243e
000000b0: a966 84bd ec10 0e3d f787 1b3e 1c2c 743d
000000c0: 78f0 a13d 8205 c43b 30fc 12bc c17c 113d
000000d0: 5e37 26bd 7c2c c33d 09cc b83d 011b d9bb
000000e0: 6bc6 983c 615b df3c cb0d 383e 0c8e 653d
000000f0: 19a2 10bd a6d9 58be 6d3d 5e3c 1021 783c
-0.04317124 0.1013664 -0.0045162956 0.007751346 -0.13389637 0.0974189 0.03187232 -0.07313465
-0.040112376 0.08196116 0.16082107 -0.012336131 -0.05629085 -0.53656656 0.004667235 0.13963297
-0.16819979 0.11127494 0.047318194 0.025314718 0.09073775 0.10404717 -0.034212038 -0.03637464
-0.09020292 0.1390687 -0.2632276 0.17194907 0.09992869 -0.0040938575 -0.07139327 -0.010919876
0.0088054575 -0.35806403 -0.023441967 0.22948796 -0.008514975 0.06471751 -0.14023408 0.16823533
0.07194587 0.05210835 -0.0011139667 0.16080445 -0.06464893 0.034684107 0.15188585 0.05961238
0.07907194 0.005982102 -0.008971259 0.035519365 -0.040580146 0.09529969 0.090232916 -0.0066255336
0.0186493 0.027265253 0.17974012 0.05604367 -0.03531084 -0.21176776 0.01356445 0.015144601

fc_last.weight f4 [64, 64]
00000000: f318 e4bc 331d aabd 4a0b 11be 4263 0dbe
00000010: 4809 ac3c 1b48 a93c a858 48be 0a85 c9bd
00000020: a4f3 d13e 9519 c63e 3a51 943e 6c12 213e
00000030: 5fb4 c1bb 0658 bfbe 3a4e 35be aa15 f8bc
00000040: 7b83 903e e09e 68bd b487 293e 8bb2 dbbd
00000050: 0782 e93d 9306 363e 7785 963d 5d25 c1bd
00000060: a16a abbe 4584 d43c 575d e3bb 787a cf3d
00000070: da5c 4dbe a7d2 a3bc 9965 3fbe 094b ea3d
00000080: 01d1 e9bd b926 0cbe 750d 093d 201e aabd
00000090: 3bdd 1d3d ce00 c7bd 94ba ba3d 5fa6 6cbd
000000a0: a471 5dbe 2aba 21bd faeb 163e fd0d 01bd
000000b0: 072b 683d d930 8ebe 4b3e 443e be7b f53d
000000c0: b823 753d 0c6b 9abe 0919 0bbe 3c20 223e
000000d0: e61f 34be 80c6 023f 2da3 f53c c2bb fa3e
000000e0: d646 6cbe ea9f 69be 0768 0a3c bdac eabb
000000f0: cde8 573e 2072 dd3d 5203 26bd 7249 36bd
00000100: f56e b23e be23 4b3e 88da e23d 8952 fa3c
00000110: 93f1 d83d d0ae 66bd e6f9 16be 0d51 283d
00000120: 5477 203e f080 8cbe 4511 92be a852 a1bc
00000130: 573e a43d fe94 9a3d b240 443e fcde b2bd
00000140: b4ef 41be 56d6 f13d 9576 023f 60dd 513e
00000150: 8cf5 2d3d 7c45 ddbd cf0c 94b9 880c bfbd
00000160: 465f 88bd 1e9a 81be 29f4 c6bc 3bb5 99be
00000170: fc41 383d acc3 623e caf4 0bbd 1209 6ebe
00000180: e122 8f3d 4603 e43c 745b 0cbd 8b7e 87be
00000190: 4af7 183e 5a6f 48be 2f6d 3fbd fd20 06bf
000001a0: 4f63 503e 269b d83e c8fe ca3b 8d4a 00bc
000001b0: 86c6 1cbe d129 c33c 4cca 0b3e 9234 00be
000001c0: ce14 2e3c f318 263e f2cb 42ba bb6f f1bd
000001d0: 7ad9 163e 487f 0ebc 1984 0abe 4632 133e
000001e0: 0feb fa3c 7b28 cabd cdb5 293e 807b b13c
000001f0: fb3a d0bd ec98 833e 959c 8abe f732 a43e
00000200: 6e78 b2bb 57b7 403d 0963 c13c 9ad6 79be
00000210: b05f 9d3e feda 3b3c 34a5 343e 7e22 81bc
00000220: 48d3 77bd bb06 afbe 93a3 00be decd 783d
00000230: a1cb 493d e5a7 35be ba0d 223e 2899 dc3d
00000240: 9bfb 5f3d fb0b 88bb 21f8 043e 8dc3 883d
00000250: 59c4 1cbe db66 87be d82f 1f3e 9eba bebc
00000260: 974d 113e 3ab0 e5be bd6c 7abe 2740 633d
00000270: aabb dc3d b87c fdbe 6403 bbbd 1a8c ebbe
00000280: 62d2 19bc 57fd dabd e2f6 523e 973d a73d
00000290: af6d a6be b6f8 78bd d4d4 6a3c 98dc 98bd
000002a0: 8e1b 853d 3a9e fc3e c583 e43d 5c66 f83d
000002b0: fc52 23be b44a 653d ab48 133d b929 6d3e
000002c0: a4f6 d93e dc98 9dbe 01a7 c1bd c421 233e
000002d0: ac46 2cba 01be 33be 6c37 7d3d cf17 32bd
000002e0: 4ea6 41bc bc4f d5bd 2fb5 453e 71c9 b13d
000002f0: d17e 2d3e 8f21 243d 6974 90bc 01f5 a93e
00000300: 680a 713d 74c2 ab3e 51d6 55bb 4bfa 0cbf
00000310: e13e c53c 767c 273d 16ca ae3d ebf5 2b3d
00000320: ac74 66be d431 0d3d 3d6d d7bd cfa8 bfbd
00000330: 9f35 13be f613 efbd a6c4 893e 482d a63d
00000340: 50ce 4bbe b42a a73e 583d 0a3d 8f9a a93d
00000350: ac79 a9bd 7d57 ddbd a809 953c dbb4 543e
00000360: 6524 6b3d 44a8 38bf 37a9 33be c863 3e3e
00000370: 8233 273e 4666 cdbe c857 17be 95c0 b4be
00000380: 8ad9 d3bd 4bb2 af3d 14b6 d3bd 56ae 49be
00000390: cdba 61be 7f9b 31be 3c5a 6b3e 6519 0e3e
000003a0: 75cb debc 6c0b 16be 5587 463e e475 aa3e
000003b0: 59ca b33d bf3a 42bb db60 82bd a7f4 35bc
000003c0: 867c 82bd a407 a23e f35e 293d 204e 0e3d
000003d0: b240 8f3d 3fbc 5abd 6961 7dbc a578 b23d
000003e0: 3f25 3f3e 71d8 c43d 17db e4be 5c41 5f3e
000003f0: e266 063f b054 273e a576 a23e 32cf f23d
-0.027843928 -0.083063506 -0.14164463 -0.13807395 0.02100052 0.020664265 -0.1956507 -0.09839828
0.41006196 0.38691393 0.2896822 0.15729684 -0.0059113945 -0.37371844 -0.17705622 -0.030283768
0.28225312 -0.05679214 0.16555673 -0.10727414 0.11401754 0.17775945 0.07349675 -0.094309546
-0.3347979 0.025941977 -0.006938617 0.10130781 -0.20054951 -0.019997908 -0.186911 0.11440093
-0.114168175 -0.13686647 0.0334601 -0.08306527 0.03854106 -0.0971695 0.09117618 -0.05777585
-0.21625382 -0.03948418 0.14738455 -0.03150748 0.05668166 -0.27771643 0.19164388 0.119864926
0.059848517 -0.30159795 -0.13583769 0.15832609 -0.17590293 0.51084137 0.029985035 0.48971373
-0.23073897 -0.22814909 0.008447654 -0.0071617053 0.210849 0.10812783 -0.04053051 -0.044503637
0.34850278 0.19837853 0.11076838 0.030556934 0.105929516 -0.056319058 -0.14743766 0.04109292
0.1567052 -0.27442122 -0.285288 -0.019692734 0.08019703 0.07547949 0.19165304 -0.08733937
-0.18939096 0.118084595 0.5096219 0.20494604 0.0424705 -0.10804269 -0.00028238303 -0.09328562
-0.06658797 -0.25312895 -0.024286347 -0.3002108 0.044984803 0.22144955 -0.034168996 -0.23245648
0.069890745 0.027833592 -0.034266904 -0.26463732 0.14938083 -0.19573727 -0.046734985 -0.52394086
0.20350383 0.4230587 0.006194923 -0.007830274 -0.15310106 0.02382365 0.13651389 -0.12520054
0.010625077 0.16220455 -0.0007430903 -0.11788889 0.14731398 -0.008697338 -0.13526954 0.14374647
0.030629663 -0.09871002 0.16573258 0.021665335 -0.101675 0.25702608 -0.27072588 0.32070133
-0.0054464852 0.047049847 0.023606794 -0.2439827 0.30737066 0.011465786 0.17641145 -0.015763517
-0.060504228 -0.34184822 -0.12562399 0.060743205 0.04926646 -0.17739828 0.15825549 0.107714
0.05468331 -0.004151819 0.12985279 0.06677923 -0.15309276 -0.2644566 0.15545595 -0.023282345
0.14189754 -0.44861013 -0.24455543 0.055481102 0.107779816 -0.49509215 -0.09131506 -0.46005327
-0.009388538 -0.10692852 0.20601991 0.08166044 -0.32505557 -0.060784064 0.014332969 -0.0746395
0.06499396 0.49339467 0.111579455 0.121288985 -0.15949625 0.055979446 0.035957973 0.23160447
0.42570984 -0.30780685 -0.094556816 0.1593085 -0.000657181 -0.1755295 0.061820433 -0.043479737
-0.011819435 -0.10415599 0.19307397 0.08681 0.16942908 0.040071066 -0.017633634 0.33194736
0.058847815 0.33546793 -0.0032628963 -0.55069417 0.024077835 0.04089018 0.085346386 0.041982573
-0.22505444 0.034471348 -0.105188824 -0.093583696 -0.14375924 -0.11673729 0.26907843 0.081141055
-0.1990292 0.32649767 0.03374991 0.08281433 -0.0827516 -0.10807703 0.018193081 0.20772116
0.057407755 -0.7213175 -0.17545019 0.18592751 0.16328242 -0.4011709 -0.1477958 -0.35303178
-0.10344227 0.085789286 -0.10337463 -0.1969541 -0.22043915 -0.17344473 0.2298364 0.13876875
-0.027196625 -0.14652795 0.19387563 0.33293068 0.08778829 -0.0029637066 -0.0636613 -0.011105693
-0.06371407 0.31646454 0.041350316 0.034742475 0.069947615 -0.05340218 -0.015465119 0.08714417
0.18666552 0.096115954 -0.44698402 0.21802276 0.52500737 0.163409 0.31731144 0.118559256

fc_last.bias f4 [64]
00000000: 50ca 013d c4ca 01be a9f7 8fbc 5c40 52bd
00000010: 2de6 0b3e 31e4 013c a347 9cbd ff11 0a3e
00000020: 513d 8fbd e178 d63d df98 9c3d d627 3cbd
00000030: 616b 33bd 4cf7 a3ba b9b6 143e 318f 933d
00000040: 94b6 d6bd ffe1 33bd c03b 94bd cb62 a3bb
00000050: f951 693d eea9 4a3b f344 19be a672 2b3d
00000060: 40e9 0b3d b016 31bd b18d 033e d2ff 0cbe
00000070: 03f3 20bd 5395 2bbd c1dd e53d 9673 04bd
00000080: a27b 06be a867 c13c 36f7 a1bd 2994 893d
00000090: 01ad 0c3e 8b56 0b3e d817 ed3d 5185 bebd
000000a0: 6d81 4c3d 466b 3b3d 9c73 873c 1873 4e3e
000000b0: 32c7 8cbd 6189 bbbc b450 d8bd 54d3 193d
000000c0: 142a d2bd 80df 89bc a509 a0bd 28a4 013e
000000d0: 9785 13bd 3362 0a3e 4ed6 253d 5a96 753c
000000e0: d330 27bc 118d d93d e6b9 e93d 9b38 b13d
000000f0: f23d a03c 8457 ccbd 9008 ff3d 0378 933d
0.03168708 -0.12675005 -0.017574148 -0.05133091 0.13662024 0.00792794 -0.07630851 0.13483427
-0.06994117 0.104722746 0.07646345 -0.045936428 -0.043803576 -0.0012509613 0.14522828 0.07205046
-0.10484043 -0.0439167 -0.07237959 -0.0049861423 0.05696294 0.003092404 -0.14967708 0.041857384
0.03415799 -0.043234527 0.1284702 -0.13769463 -0.039294254 -0.041890454 0.11223937 -0.032336794
-0.131331 0.023608997 -0.0790848 0.067177124 0.13737871 0.13607232 0.115768135 -0.09302772
0.049928118 0.0457566 0.016534619 0.20161092 -0.06873931 -0.022892656 -0.10562268 0.037555054
-0.10261932 -0.016830206 -0.078143395 0.12660277 -0.036016073 0.13514023 0.04048758 0.01498946
-0.010204512 0.106226094 0.114124104 0.08653375 0.019560788 -0.0997763 0.12452805 0.07200625

layers.1.weight f4 [64, 64]
00000000: e167 edbe c47d 513d b19e f13b 5db5 27ba
00000010: cbd6 6cbc 6364 61be 290c 163b 76d9 1cbd
00000020: 54bd 1dbd e657 163e 160a e63e 733b 7ebb
00000030: 47e7 bf3b 788a 36bc 9b46 cc3b cc75 92be
00000040: 49c7 afbd b806 653e 1c5a 10bb d3df a83b
00000050: 9798 9cbe 43ee 693d 3094 2d3c 270b 0fbc
00000060: 0e01 663d adbe fd3b d398 59bc ce9a 9e3f
00000070: b6bc 7fbb d977 5abe 4977 ebbe 6a8a 323e
00000080: 9be6 39be 0588 1e3d 7812 babc 343d 68bd
00000090: e0fc 48be c336 0dbd 320a 04bc c035 e3bd
000000a0: d424 e43c 58bf 8b3c 3c92 8cbd 2ecf 88b9
000000b0: 5d9c 8f3c 4c00 a5bc d3b5 29bc 9211 52bc
000000c0: b756 02bd c6a1 27bb c2a9 6ebd 8cb5 d33c
000000d0: 7a44 e93a ba33 0cbc 250f 153d b7ec 6dbd
000000e0: 9504 3e3c 634d c33c 076b 12bc df95 aebb
000000f0: d626 14be 86ba 9abd 3c07 d83e 57b2 713f
00000100: 5f85 08bd 9c3c 653e bbd0 1a3e 30e5 0a3e
00000110: 4cf8 6dbe c06b 9c3e 9c63 db3d 1677 223e
00000120: e99a b03c 0f3a e63d a205 10bd dc3c 223e
00000130: 94d7 53bd bf22 cc3e d2d3 573e 573b 4e3d
00000140: 715d 923d 5438 aa3d e3fa 493d 08fe cf3d
00000150: 648d 173e 4365 143e 788d b13d c963 a43d
00000160: 7393 d13c d621 7d3d 7bfe ad3e 7aff 943e
00000170: ff89 753e 27f5 353e 4d08 073f 6be0 8e3e
00000180: 8b3c b53d d1c6 f3bc ec09 b23e 3949 6abd
00000190: a2f6 a83d 5b7a 213e c10d bd3d bef1 9a3d
000001a0: d59b 083e 77f0 51bc 0899 073e ea1b 79bd
000001b0: 6634 ac3e e665 1b3e e47b 693d 56b7 e53d
000001c0: 8d25 6d3e fb4b 8c3e b926 5e3d b408 cfbb
000001d0: 4ea1 2b3e acf7 8c3c c172 693e e2a3 893d
000001e0: 5207 2b3e 0f39 a63d d95f c93d 5003 8dbe
000001f0: 0944 e73d 3ef7 0a3e 0da1 333e 2e98 85bd
00000200: d664 40be 03e3 bf3d 0d61 bd3e 8f26 673e
00000210: 4330 84be 2c77 093e f14f c43e 1bf2 ab3e
00000220: 1262 be3c cbd8 2d3e 6ebb 013d e551 4f3e
00000230: 3ce1 4cbe 4620 abbe a7de d03c 615e 413d
00000240: 8f3e 083d bde7 6bbd 5afa d7bd 6077 d63d
00000250: 9854 9a3e 9536 033e 147f 003e 9eb4 7a3d
00000260: fc86 b83d fa3e cdbc 17ff 95be f54f 95bd
00000270: 9d1b b4be 5345 2a3e 2466 66bd b0b4 f13d
00000280: 762f cc3d c98f 863c d39f a53d cfc3 dbbd
00000290: 82cb bc3d 7c4c f33d 8b97 203e 4715 353e
000002a0: f4a0 223d 2e16 503e ac0b fd3d 1c86 303d
000002b0: 3d7e 23bc 5225 813d db29 6bbd 33af d83d
000002c0: e0b4 cd3d e9d1 383f 1ef6 033e 8645 e33d
000002d0: b346 ad3e 8bb8 8b3b 5dc4 78bd a214 963e
000002e0: c92b 05bd c895 d5bc 2572 063e f4bd 943e
000002f0: ae61 e03c b835 103e 3629 e33d e435 5a3d
00000300: 8a5c 98be 73d6 79bd e5bc c2bd 980c 8e3e
00000310: d693 b3be 4140 983c db20 d93c bf3f cb3c
00000320: 352e cd3b d3ce ca3d 6c8b 91bd 4ca0 3b3d
00000330: a34f e3bc a3ab e13c 72b2 27bc 9d5a 213e
00000340: 8dc9 52bd 9382 013e c6ea 843b 528d 9c3d
00000350: 9221 34be 6473 103c f9f7 2c3e 7bf3 973e
00000360: 41c0 aebc ce54 433b 9664 e93c 907a e43c
00000370: 145b 40bd ebf8 823d 7903 1e3d c8e0 34bd
00000380: 2528 313d 33f3 323f 1809 9bbd ad19 8a3f
00000390: 12a8 db3c 7d24 7cbc 1244 84bc 3db9 5abd
000003a0: f7d7 ffba b744 3abc 63b8 3c3d 73ac dcbb
000003b0: d746 bcbc f551 15bd a28b 813c eb5e e33a
000003c0: a9ca 76ba a8a9 e23c ce17 1bbd f8b4 40bd
000003d0: 292c 6cbd 3c22 dcbb 327a 613c 8755 d2bc
000003e0: 2bb0 5d3c c981 b0bc 0aef febc a733 4bbc
000003f0: c8d1 8f3f 22f6 9abd c787 28be d7f7 ed3d
-0.46368316 0.05114533 0.007373654 -0.00063975697 -0.0144555075 -0.2201095 0.0022895432 -0.038293324
-0.038510635 0.14681968 0.4492957 -0.0038792759 0.005856428 -0.011141412 0.0062340028 -0.28605497
-0.085829325 0.22365844 -0.0022026366 0.005153635 -0.30585167 0.05711199 0.010594413 -0.008730686
0.05615335 0.0077436776 -0.013281065 1.2390993 -0.0039022393 -0.21334781 -0.45989445 0.17435613
-0.18154375 0.038703937 -0.022713885 -0.056698993 -0.19627714 -0.034476053 -0.008059071 -0.110942364
0.027849592 0.017059013 -0.068638295 -0.00026094302 0.017530615 -0.020141743 -0.010358292 -0.012821572
-0.03182098 -0.0025578602 -0.058267362 0.025843404 0.0017796897 -0.008557254 0.036391396 -0.058087077
0.011597772 0.023840612 -0.00893665 -0.0053279246 -0.1446794 -0.07555108 0.4219302 0.9441275
-0.033330318 0.22386402 0.15118687 0.1356399 -0.23239249 0.30550957 0.10712358 0.1586574
0.021558242 0.112415425 -0.035161622 0.15843529 -0.051719263 0.3987026 0.21076897 0.05034956
0.07146729 0.08311525 0.04931153 0.101558745 0.1480003 0.14491753 0.08669561 0.08026845
0.025583005 0.061799847 0.33983216 0.29101163 0.23978423 0.177693 0.5274704 0.27905592
0.08849438 -0.029757889 0.34773195 -0.057198737 0.082501665 0.15769331 0.09231139 0.0756564
0.13340695 -0.012813679 0.1324197 -0.060817637 0.33633727 0.1517559 0.057002917 0.11216609
0.23158856 0.27401718 0.054236148 -0.006318176 0.16760752 0.017207943 0.22797681 0.06720711
0.16702011 0.08116352 0.098327346 -0.2754159 0.112922736 0.13570878 0.17541905 -0.065231666
-0.18788466 0.09369471 0.36988106 0.22573303 -0.2581807 0.13424367 0.3834224 0.3358315
0.023240123 0.16977231 0.031672888 0.20246084 -0.20007795 -0.3342306 0.025496794 0.047209147
0.033262786 -0.05759405 -0.10545798 0.10471988 0.30142665 0.1281379 0.12548476 0.061207406
0.09010121 -0.025054444 -0.2929618 -0.07290641 -0.35177317 0.16628008 -0.056249753 0.118020415
0.0996999 0.016425984 0.08087125 -0.10730707 0.092185035 0.118798226 0.15682809 0.17683898
0.039704278 0.20320961 0.12355742 0.043096647 -0.009978828 0.063059464 -0.057412963 0.105802916
0.10044265 0.721953 0.12886855 0.11097245 0.33843002 0.0042639426 -0.06073414 0.29312617
-0.03251246 -0.026072398 0.1312948 0.29051173 0.027390327 0.14082992 0.11091845 0.05327405
-0.29758102 -0.06099553 -0.09508685 0.27743983 -0.35073727 0.018585326 0.026504925 0.02481067
0.006261612 0.0990273 -0.07106671 0.045807168 -0.027747935 0.027547663 -0.010235416 0.15757222
-0.051461745 0.12647466 0.0040563075 0.07644142 -0.17590931 0.008816574 0.16891469 0.29677948
-0.021331908 0.0029805186 0.028490346 0.027890474 -0.04696186 0.063951336 0.03857753 -0.04415968
0.043251175 0.6990234 -0.07570094 1.0789086 0.02681354 -0.015389559 -0.01614574 -0.053399313
-0.0019519319 -0.011368922 0.046074282 -0.0067344247 -0.022982998 -0.036455113 0.015813652 0.0017347013
-0.0009414354 0.027668789 -0.0378645 -0.047047585 -0.057659302 -0.0067179482 0.013762044 -0.025675548
0.013530771 -0.021546261 -0.031119842 -0.012402452 1.1235895 -0.07566477 -0.16458045 0.11619537

layers.1.bias f4 [64]
00000000: c72f 323d bd3b 99bc d8eb f03d 82fe cabe
00000010: 470c 9ebe af70 db3d 928f 76bd a886 b93d
00000020: 43c8 6a3e 636c 57be 6d0c 0a3e 1e5e 84bd
00000030: 5dc3 583c 2f61 6bbd c222 373e 4d0a f6bc
00000040: 511b 493e ccc3 14be 655e 513e 9f60 4f3e
00000050: c2e6 a53b 6ef9 1d3e f587 d43d 2efd 373e
00000060: 63c7 053e d60d 8a3e 353e a43d 5adb fbbd
00000070: a9cf f43d 3630 883b cfea 463e 36b0 493d
00000080: 28a5 0dbd 2c1b 513e 0f80 163e 3f5b 06be
00000090: a6a1 81bd 0665 d73d eeec 453d de0f bfbd
000000a0: f62d 16bf e25d ebbd 7192 5a3d 8d19 13be
000000b0: e171 5e3e ead8 043d ee56 4ebe 95f4 283e
000000c0: 8bf4 14be 6bb6 783c 3959 943e d266 1d3e
000000d0: 6076 d03d 27b2 243e 32f9 2dbc a640 bfba
000000e0: c6cf 0c3e 7186 a03c e711 bd3e 80a8 5bbe
000000f0: 0154 ffbd 118b 123e 1f0c 5f3d 5834 78be
0.043502595 -0.018705243 0.117637336 -0.396473 -0.30868742 0.10714852 -0.060195513 0.09058887
0.22927956 -0.2103744 0.13481303 -0.06463264 0.013230172 -0.05746573 0.17884353 -0.030034209
0.19639327 -0.14527816 0.20446165 0.20251702 0.005062909 0.15427181 0.10377494 0.17967674
0.13064341 0.2696368 0.080196775 -0.12297697 0.119536705 0.004156138 0.1942551 0.049240313
-0.034581333 0.20420521 0.14697288 -0.13120745 -0.0632966 0.105173156 0.048321657 -0.09329198
-0.5866388 -0.11492516 0.053362314 -0.14365216 0.21723129 0.032433428 -0.20150349 0.1649955
-0.1454641 0.015180211 0.2897432 0.15371254 0.10178828 0.16083585 -0.010618495 -0.001459141
0.13751134 0.019595357 0.3692772 -0.21450996 -0.12467194 0.14310862 0.05445492 -0.24238718
