experiments/pretrained_models/id_0410/model_ckpt_feature_extractor.pt (torch, 52991 bytes, 6 tensors)

fc_first.weight f4 [64, 66]
00000000: 9c42 5ebd 0d9a 7ebd a613 623a 9ac2 9b3c
00000010: 43e8 24be c78c 8ebd b4ab a43d a989 6cbd
00000020: d796 1bbb a25d 0ebd 7450 9a3d c3ab 72bc
00000030: c0f4 c9bc 5c3b 4dbd e5dd ce3d a7f8 f3bd
00000040: 0ad0 e0bd 80e4 8abd 7a77 a13e 4521 093e
00000050: 9519 1e3e 6617 dc3d 6f58 eabd 5d2d 21be
00000060: eff5 3dbd c789 c73d bee3 99bc f559 ffbd
00000070: d277 63bd 1d8b 303e 9681 c1bd a721 963d
00000080: c33c ad3d 62e7 bb3d 8f55 50bd f8b0 8f3c
00000090: 6473 05bf fc13 9ebd a50f 9fbe 223f 4fbd
000000a0: 1fe9 bfba acf0 86bd 670e c9ba dda2 83bd
000000b0: 0df7 29be db9e a43e 8ce0 033e 1f0d 3cbe
000000c0: 7ae2 293d 07bd 02bd 8fd7 993e d2d3 69be
000000d0: fed6 f3bd d978 2c3e e69e a23c 1eb2 39be
000000e0: c36c 53be 70f0 f8bd fa22 5fbe 0aa7 3d3f
000000f0: 151a 4fbc 0bfe 363d 306f c03d ba7f 7c3e
00000100: 2a16 d63e fff4 00bf 6033 253d 9527 81bd
00000110: e50c 42bd 119d 043d 02be 9e3d 754b 7dbd
00000120: 78b1 d13d 368a 853d 772b 793c b073 6bbd
00000130: 5c01 d53c 93e9 d5bd 0f7c b93e c52b bfbd
00000140: 1b4a 52bd ca48 9abe 0afc 4e3d 3eb2 1bbd
00000150: 9032 a53d a006 043e b50a 9d3e 8a05 22bf
00000160: a7e1 8739 26d2 213f 6f0e d0bd b898 843d
00000170: 1938 1dbe 3677 0c3e c70f 1abd 23bd 5dbd
00000180: 40f1 ce3e 3851 393c db3a 9abe 7280 8c3e
00000190: 3c2f 103d 91d3 e43c cf2c f13e 5652 0b3d
000001a0: 5557 853c 628b e33d c467 82bd b2a4 223e
000001b0: b1a2 013c 52c0 c6bd dc2a 80bc 7ba3 f2be
000001c0: 0407 66bd 37aa d23d 4872 a9bc 1f8e e83d
000001d0: 6a48 07be 224d 02bd 0787 de3c 851b 59be
000001e0: 162e dc3d 9c7c 1f3e 6bb1 9ebe 0e59 fb3d
000001f0: 78e2 833d a611 313e 4b24 0cbe 419f 19bd
00000200: d782 1b3e 05e9 d4bd 9f2f fdbc f92c 523b
00000210: 0f52 dabd fe3e 433d b0ba 3b3d c2c3 6a3d
00000220: c2ef 68bd 3c6f 543d 5148 d93d c2a5 fc3d
00000230: 8daa d2bc d180 603d ab31 d8bc 6927 9b3a
00000240: dcee e4bd ecb1 c83d 963b 683e 6ce9 ec3d
00000250: ed75 a93b 7ad8 d63e 85b3 0abd dca5 203c
00000260: 872e 87bf b3a9 703e f1b7 97bd ec2f ce3d
00000270: 0f90 7ebd a329 8f3b de67 57bd a786 313e
00000280: 2a5b 04be e008 8bbd 7d72 933d 1391 903d
00000290: 46ca 13be 5842 6cbe 5c17 b73d 1df8 343e
000002a0: e05e 4d3f 8dbf 993b bf68 96bd d46a 843c
000002b0: fd30 7a3d a140 0cbe 3309 943d d8c3 8b3d
000002c0: c6bf b6bd d63f 643e 586e 1b3d fef3 05be
000002d0: 3e7f bcbd 7937 09bd ec32 7cbe 9c8c 763c
000002e0: 228c a93d 4c33 11be 3216 393e 1b0e c83d
000002f0: f0f7 c2be 0cb0 e4bc c14f 233e bb94 983e
00000300: d5f3 8e3c c3f1 bdbc 5f09 edbd 96a4 00be
00000310: 1b30 2c3e a854 163e feb0 7fbd fb96 12bd
00000320: 41a7 cabd 5868 173e 6e3d 19be 8745 c8bd
00000330: b691 00be fffa 8d3d 4ed9 183d ab94 febc
00000340: 4e31 16bd 8e84 963d 3f3e cbbd 1f7a 2fbd
00000350: 38c3 293f ad5f 8c3e 74e0 e6bd b827 013c
00000360: 4a00 4b3f d4b1 093e 1ea5 db3e 0341 1cbe
00000370: 9c25 033d 121a 0bbe 761e 323d 8e85 4d3c
00000380: e4b1 073e 8093 093f 6761 443d fb71 14be
00000390: e11c b63d 38f1 b13d 2a96 82be 393d a33b
000003a0: 0b68 5f3c e1d9 723e 4ef7 1b3f dd17 bd3d
000003b0: b5f2 09be 4ff8 063e 271f 0d3e a49a 1bbe
000003c0: 16e3 603d af3d fe3d 4c0f 74be 627b 69be
000003d0: d7c3 c1bd c834 8cbd 5ba9 75bd b5f9 be3d
000003e0: baef bcbe 0bbb c7bc 9599 8cbc ce54 31bf
000003f0: fcd6 54bd 721f 4a3c f6e1 3f3f 66b7 743e
-0.054262742 -0.062158633 0.00086241437 0.019013692 -0.16104226 -0.06960445 0.08040562 -0.05774847
-0.002374103 -0.034757264 0.075348765 -0.014811459 -0.024652839 -0.050105438 0.10100917 -0.11912661
-0.1097718 -0.06781864 0.31536466 0.13391598 0.15439446 0.107466504 -0.114426486 -0.15739961
-0.04637712 0.09743076 -0.018785354 -0.1246833 -0.05553419 0.17240568 -0.09448545 0.073306374
0.08458855 0.09174992 -0.050862845 0.01754044 -0.521292 -0.077186555 -0.31066623 -0.050597318
-0.0014641619 -0.06588873 -0.0015339375 -0.06427548 -0.16598149 0.32152447 0.12878627 -0.1836438
0.04147575 -0.03191855 0.3004727 -0.2283471 -0.11906241 0.16842975 0.01985116 -0.18134353
-0.20646958 -0.12155235 -0.21790686 0.74083006 -0.012640496 0.044675868 0.09396207 0.24658099
0.41813785 -0.50373834 0.0403322 -0.06306378 -0.04737558 0.032376353 0.07751085 -0.06183954
0.102389276 0.06520502 0.015208117 -0.057483375 0.026001625 -0.10444941 0.36227462 -0.0933452
-0.051340204 -0.3013366 0.050533332 -0.038011782 0.08066285 0.12893152 0.3067223 -0.632897
0.0002591733 0.63211286 -0.10159003 0.06474441 -0.15353431 0.1371735 -0.037612703 -0.054135453
0.40418434 0.011310868 -0.30123028 0.27441746 0.035201296 0.027932914 0.471045 0.03401407
0.016276995 0.111105695 -0.06367448 0.15883139 0.007912324 -0.09704651 -0.015645437 -0.4739035
-0.056159034 0.10286372 -0.020684376 0.113552324 -0.13211218 -0.03181184 0.027163995 -0.21201904
0.10750978 0.15574878 -0.30994734 0.12272845 0.0643968 0.17291889 -0.1368572 -0.037505392
0.1518663 -0.103960074 -0.030906497 0.0032070263 -0.10660183 0.047667496 0.045832336 0.057315595
-0.056869276 0.051863894 0.106094964 0.12336303 -0.02571609 0.05481035 -0.026390871 0.0011837307
-0.11178371 0.09799561 0.2267898 0.11567959 0.0051715286 0.41962034 -0.03386261 0.009805169
-1.0561074 0.23502235 -0.07408131 0.10067734 -0.062149104 0.004368977 -0.05258929 0.17336522
-0.12925401 -0.06788802 0.07199571 0.07058921 -0.1443263 -0.23072183 0.08940002 0.17672773
0.8022289 0.004692024 -0.073441975 0.01616422 0.061081875 -0.13696529 0.07228317 0.068244636
-0.08923297 0.22289976 0.03794703 -0.13081357 -0.09203957 -0.03350017 -0.246288 0.015048172
0.08278681 -0.14179724 0.18074873 0.097683154 -0.38079786 -0.027915977 0.15948392 0.29800972
0.017450253 -0.02318657 -0.11574053 -0.12562785 0.16815226 0.14680731 -0.062424652 -0.035788517
-0.098951824 0.14785898 -0.1496484 -0.09778886 -0.12555584 0.06932639 0.037316613 -0.03107675
-0.036668114 0.073495016 -0.09923982 -0.042841073 0.66313505 0.27416745 -0.1127328 0.007883005
0.79297316 0.13446742 0.42899412 -0.15259175 0.03201829 -0.13584164 0.04348608 0.012544049
0.13251454 0.5374069 0.047944453 -0.14496605 0.08892227 0.08688587 -0.2550519 0.0049816635
0.013635646 0.23715927 0.6092423 0.09233067 -0.13471492 0.1318066 0.13781415 -0.1519571
0.054904066 0.12414109 -0.2383396 -0.22800973 -0.094611816 -0.06846005 -0.059975963 0.093249716
-0.36901647 -0.024381181 -0.017163077 -0.69270027 -0.051962838 0.012336599 0.74954164 0.23898086

fc_first.bias f4 [64]
00000000: f23d a8bd 9285 d93d cb68 ebbc 67c5 c53d
00000010: a470 4ebd 5235 10bb c423 173d 3dfb 613d
00000020: 6ee1 d03d 5f99 4dbd a35e 5dbd 0e8e 4cbd
00000030: 5e4d f83d b8f1 79bd 09db 13be 5053 bebc
00000040: cfcd 023d 91b9 26bd b27c a0bd 683c 993d
00000050: 9430 073d 456a de3d a6e4 bdbd 5679 733d
00000060: 0b31 4c3d 7a99 4ebd 9c0c 543d 7bc3 b83c
00000070: 8a75 30bc 48ed 063e 2917 8b3d edba 893c
00000080: 9aff 84bd 2527 f03d 23fc ab3d 991a ce3d
00000090: 6731 54bc bce0 ea3d 8450 e53b e7cb 653d
000000a0: 2c19 bf3b ca7f babd d7a3 2cbd e0e9 e03c
000000b0: 2a15 90bd 738c f63c 2fa9 9c3d d9a7 8e3d
000000c0: 4333 a9bd 58b2 f1bd 010d 25bd ba8f 4abd
000000d0: 7fbb 043e c15f 85bd 618a ab3d 7d34 ff3d
000000e0: eeb9 fc3d 25cf 4d3d 3637 c53d 5317 123d
000000f0: 5101 afbd b085 ca3d dd2f 87bc cc39 b63d
-0.0821494 0.1062118 -0.028736493 0.09656792 -0.05040039 -0.0022004438 0.036899343 0.05517124
0.10199247 -0.050195094 -0.05404533 -0.04994016 0.121241316 -0.061021537 -0.14439024 -0.023233086
0.031934556 -0.040704314 -0.07836284 0.07482225 0.033005312 0.10860113 -0.09272127 0.059441887
0.04985146 -0.050439335 0.051769838 0.02255415 -0.010770211 0.13176453 0.06791527 0.016812766
-0.06494065 0.11726216 0.08397701 0.10063667 -0.012951232 0.11468646 0.0069981236 0.05610266
0.005831858 -0.09106405 -0.042148437 0.02745527 -0.07035287 0.030096268 0.07649457 0.06965608
-0.082617305 -0.118015945 -0.040295605 -0.049453475 0.12962149 -0.06512404 0.08376003 0.12461183
0.12340151 0.050246377 0.09629671 0.035666775 -0.08545173 0.0988878 -0.016502315 0.08897743

fc_last.weight f4 [64, 64]
00000000: 0229 52be 8f3e cf3d 1363 bd3d 2fdc 46bd
00000010: 5425 85bd 3edf 2bbd 374b 90bd ff9c ddbd
00000020: 907b a13d dfcb 9d3d d730 2c3c 1046 a63d
00000030: c72c 32bd 6784 04bd 702e 203d 5e5e 963d
00000040: b634 88bd b647 bb3b af66 a13d 0f2b 663d
00000050: d1dd 2d3e b593 b03d 63e1 d63c 2758 34be
00000060: 24ed dfbc 6319 a43d 1f69 9cbd e45d 0ebd
00000070: a9bc 4bbe 345f 37bb 4116 e03c c0a9 133d
00000080: 58d0 bb3d 2664 2ebe 3c5e 7b3c 1f31 10be
00000090: 5a9e 7a3d fbe5 82bd 08d8 233d 0cc3 203d
000000a0: c0a4 f6bd 2a40 203e 4cc4 ea3d 38ac c83c
000000b0: 84d7 29be 4d58 a4bc c1e9 283e d10b 4b3d
000000c0: 81aa 0dbc 1969 03be 5e2b a33d 357b b53c
000000d0: e129 233d dc81 00bc fcba 9f3d 416c 303e
000000e0: 5b59 d4bd 9bd6 1fbe 3176 4f3e 952c 0abe
000000f0: b50b 94bd 5409 353e 20b8 bd3d ecba 18be
00000100: 859c 063e f39d 0abe f0f7 dc3d 74fc 05be
00000110: a7af 2e3d a435 6e3d 4cd5 febb 1737 123d
00000120: bf4b 873d ff7a c93d 60f0 da3d 237e 13bc
00000130: b1d9 223c f3af c43d c052 29be 06ee cdbd
00000140: a8d5 19bd bada fb3d e00c 32be de3e f83d
00000150: 9d64 7e3e d1df 7abe 295c a6bd 3c3d 773d
00000160: e066 04be 996e af3d c70b 623e 1633 293e
00000170: f693 4fbe 5847 7cbc f01a dbbd 2c62 fc3c
00000180: d329 9ebc dd5d 6d3d e757 923d cf13 20be
00000190: a0a4 203d 7179 bc3c 4ac0 19be 0465 b0bc
000001a0: d690 30bd 7869 643d 19c7 353e a36d 82ba
000001b0: f325 0f3e e0b0 2fbe 0991 c43c b7b0 283d
000001c0: a245 a5bd 34d4 febd 70ad f93d 8ecd 3a3b
000001d0: 5548 07bd bb10 fb3d 0de3 53bd ce4a 173d
000001e0: ea17 2bbd b351 853d 69c8 e2bd 70e8 61bd
000001f0: 288f e03d 7709 2b3e 12e9 91bd e86b 913d
00000200: 24c5 eebd 51d9 473e 6b52 d5bd 0eb6 9c3c
00000210: 0201 263d 9b91 4bbd c058 4b3e 38b4 5b3e
00000220: 9a9e 7b3d cdc2 c9bd 3806 a33d 7feb d7bd
00000230: 93f9 dcbd abb2 73bd f7c5 f2bd 1974 57be
00000240: c84d f93d 2c7c 403d bfe6 c3bd f721 2ebd
00000250: dadc 513b 7f73 333e 605f 05bd 10f7 8a3d
00000260: 30ae b13d 0641 fdbd b663 b83d 8239 5abe
00000270: 52e1 133e cd6c 223e baf5 fa3d fb33 39be
00000280: 1258 1ebe 6d09 89bb 4c4f 833d 0e53 dabd
00000290: 703b 193e d1c8 e6bd 3ff6 80bd f1c4 293e
000002a0: 77ae 75bd ad1e fa3d 3c50 2d3e 165a 7f3d
000002b0: ace1 543d 061d 27bd 4b88 1c3e fdd4 0c3e
000002c0: 2392 373d 3f75 043e 74cc 863d 6672 44bd
000002d0: 3c7f 2cbd 7655 b9bd df13 72be 5b5c c93d
000002e0: 87a2 a33c 0d1b 483e df2e d13c c076 84be
000002f0: 94bc 28bd 5d01 5fbd 1091 b43d 4231 c3bd
00000300: 1c81 913e 5ecb b0bd 2584 3cbe 0e6a 3f3d
00000310: 7122 273b cd91 cdbd 2e71 52be 6d64 00bb
00000320: c7af f73d 1eb3 cfbd b8a2 123c bbe0 2dbe
00000330: 6457 86bc 971b e7bc 15fa 3fbe d533 0d3d
00000340: f9d5 a53d 8c7a cdbd 3918 86ba 1f61 78bc
00000350: 3b7b ebba 8e85 113c 4c48 a83d bf0e 0c3b
00000360: f3c4 063e 4f64 5e3c f443 2b3d 397f 173d
00000370: 84ca d13d c892 1ebe edf4 243d 841a 463c
00000380: ca99 4ebb b385 863e a300 6c3d 238f 9e3d
00000390: dbee d63d 8186 b6bd e8ab 113e e0b8 b13e
000003a0: 07fc bdbc e5cd 84be 9411 c83d f20c c63b
000003b0: a81e dc3d d28f 5b3d 935e edbc e4e9 643d
000003c0: 05de 7a3d fdfd a8bd 26ef 2dbe 0907 b73c
000003d0: fa91 13be d990 fdbc 8e19 8bbc 5c4a 2e3e
000003e0: 4cb9 a13e cc65 053e ae29 62be 8a66 ba3d
000003f0: 47fb 27bd b535 bbbd aa0a a73c ac82 b43d
-0.20523456 0.10119354 0.092474125 -0.048549827 -0.065012604 -0.041960947 -0.07045596 -0.1082096
0.07884896 0.07704901 0.010509691 0.08118832 -0.043499734 -0.03235283 0.039106786 0.07342218
-0.06650679 0.0057153357 0.078809135 0.056193408 0.16979147 0.08621923 0.02623052 -0.17611752
-0.027334757 0.08012655 -0.07637238 -0.03475751 -0.19896187 -0.002798033 0.027354361 0.036050558
0.09170598 -0.17030391 0.015342291 -0.14081238 0.061186172 -0.063915215 0.040000945 0.03924851
-0.12043142 0.15649477 0.11463222 0.024496183 -0.16586119 -0.020061636 0.1649542 0.049571816
-0.008646608 -0.1283306 0.07967256 0.022153476 0.03983486 -0.007843461 0.07799336 0.17228796
-0.10368606 -0.15609209 0.2025993 -0.13493569 -0.072287954 0.1767934 0.09263635 -0.14915055
0.13145645 -0.13536815 0.10789478 -0.13084584 0.042647984 0.058156624 -0.007776892 0.03569707
0.06606244 0.09837913 0.10690379 -0.009002241 0.009939597 0.09603872 -0.16535473 -0.10055165
-0.037557274 0.12297578 -0.17387724 0.12121366 0.24843068 -0.24499442 -0.08123047 0.060361132
-0.12929869 0.08566017 0.22074805 0.16523394 -0.20271286 -0.015397869 -0.10698497 0.03080853
-0.019307053 0.057950843 0.07145672 -0.15632556 0.0392195 0.023007127 -0.15014759 -0.021532543
-0.043106876 0.055764645 0.17751731 -0.0009950887 0.1397932 -0.17157316 0.02399494 0.041184153
-0.08069922 -0.12442818 0.12191284 0.0028503868 -0.033027966 0.122590505 -0.051730204 0.036936574
-0.041770853 0.065097235 -0.110733815 -0.05515331 0.10964805 0.1670283 -0.07124533 0.071006596
-0.11658695 0.19516493 -0.104161106 0.01912978 0.040528305 -0.049699407 0.19858074 0.21455467
0.06143055 -0.098516084 0.079601705 -0.10542964 -0.1078979 -0.059496563 -0.11854165 -0.21040381
0.12173039 0.04699342 -0.09565496 -0.04251286 0.0032022507 0.17524527 -0.03256166 0.06785405
0.08675802 -0.12365918 0.09003393 -0.21311 0.14441422 0.15861817 0.122539 -0.18086235
-0.15463284 -0.004182032 0.06411609 -0.10660373 0.1496408 -0.112687714 -0.06296968 0.16579033
-0.059980836 0.12212882 0.16925138 0.062341772 0.05197303 -0.040799163 0.15286367 0.13753124
0.0448171 0.12935351 0.06581965 -0.04796066 -0.042113528 -0.090495035 -0.23640393 0.098320685
0.01997496 0.19541569 0.025535045 -0.2587185 -0.041195467 -0.05444466 0.08816731 -0.095308796
0.28418815 -0.08632539 -0.18409784 0.046732 0.0025502706 -0.10037575 -0.20550987 -0.0019591108
0.12094074 -0.10141586 0.008949928 -0.16980259 -0.016399093 -0.028211398 -0.18747742 0.03447326
0.08097453 -0.100331396 -0.0010230608 -0.015159874 -0.0017965803 0.00888194 0.082169145 0.0021371094
0.13161068 0.01357372 0.041812852 0.036986563 0.10243705 -0.1548568 0.040272642 0.012091283
-0.003152477 0.2627388 0.057617795 0.07742145 0.10494777 -0.08912373 0.14225733 0.3471136
-0.023191465 -0.25938335 0.09768978 0.0060440237 0.10748035 0.053603955 -0.02897576 0.055887118
0.06124689 -0.082515694 -0.16985759 0.022342222 -0.14411154 -0.030952858 -0.016979959 0.17020553
0.31586683 0.13027114 -0.22086212 0.09101589 -0.04101112 -0.09141103 0.020390827 0.08813986

fc_last.bias f4 [64]
00000000: 0434 10be 2d54 0dbe abae 9d3c f7e1 cfbd
00000010: 0c74 013e 9ba6 34bc f892 9c3d 73d8 033d
00000020: 40ca a53d 4016 113d a528 9e3d ac37 fd3c
00000030: ab44 bb3c 22ca c9bd 8157 14be 60b2 1cba
00000040: 9df1 81bb 7dbe c5bd bb38 823d ae23 a93d
00000050: c1fc cd3c d362 e33d ce9c 06be 98bb c2bd
00000060: bc9d b2bc 883d 9abd b449 3e3c 0342 14be
00000070: 5077 603d 3646 383b 9cc6 2ebd cb78 bcbb
00000080: 4b24 c0ba 512d 32bd bbf3 f53d 1510 c33c
00000090: f1df ecbd 23fb 8bbc 8a88 57bd a00a 87bd
000000a0: ad45 323c fe75 393c 8829 d2bc 3715 d0bd
000000b0: 2fc9 ef3d 0767 383d 494c 3abd 235b 01be
000000c0: 8965 5b3d 6b29 cd3d 0216 1bbc 7c64 63bd
000000d0: 40dd dc3c 1b34 b83b ee72 413d c2e5 6abc
000000e0: 7a87 d83d ba66 983d e65a e9bd 9ed9 a8bd
000000f0: 5571 b93d 898e 8dbd df86 a73c ae28 d73d
-0.14082342 -0.13801642 0.019248327 -0.10150521 0.12641925 -0.01102605 0.076452196 0.032188844
0.08095217 0.03542161 0.07722596 0.030910335 0.022859892 -0.09853007 -0.14486505 -0.00059775077
-0.00396557 -0.096554734 0.06358477 0.082587585 0.025144937 0.111028336 -0.13145754 -0.09508437
-0.02180373 -0.075312674 0.011614252 -0.14478306 0.054801285 0.002811802 -0.042669877 -0.0057517043
-0.0014659254 -0.04350025 0.120093785 0.02381138 -0.11566151 -0.017087525 -0.05262045 -0.065938234
0.01088087 0.011319635 -0.02565457 -0.101602964 0.117082946 0.04502013 -0.045482907 -0.12632422
0.05356363 0.100176655 -0.009465696 -0.05551575 0.026960969 0.005621446 0.047228746 -0.014337005
0.10572715 0.074414685 -0.113942906 -0.08244632 0.090548195 -0.06911952 0.020450054 0.10505806

layers.1.weight f4 [64, 64]
00000000: 7766 923e b354 a0bc ee2a c3bc 997c 993c
00000010: 2a9a 59bc 8be0 0b3d 391e 053d 6ae4 193c
00000020: 3154 383e 6664 9a3d cbd2 f3bc c552 56bc
00000030: 3936 193d 08a8 67bd 2a55 c33d 913a 02bc
00000040: cac8 16be c5bd cb3d de93 e73d 8ac3 b93d
00000050: d961 9ebd bbd9 26bd 34a6 a73c dc4c b6bd
00000060: 9b72 a6bd 0bd1 943c 0839 1d3e 9cab 5c3d
00000070: 1737 8d3d 3ce9 30bd 8262 68bd e4b3 b83d
00000080: c9d4 3dbc 5be0 f83d 63f6 c53d 0b49 973d
00000090: 37be 30be fbf4 203d c65d 7d3c ebd3 3e3c
000000a0: a1df df3d 0d76 42bd 2470 8b3d 4fd2 e43d
000000b0: 033d 41bd 9946 cb3d 8202 b63c 4f0c 5f3d
000000c0: 7e27 6abc 188f 923d c43e 6abd 604c 73bc
000000d0: 71da 303e 9a89 fdbc 8b97 01be 8bd1 eebc
000000e0: 2c13 df3c 0148 7f3c 6bee 213d d9b3 4a3d
000000f0: 9efb 0cbc c673 553d 04b8 673c 9d38 c93d
00000100: 4bea 843d a9b7 eb3e cdd9 b13c 60fd aa3d
00000110: 499a d73c c858 6ebd f7e5 d8bb 786f 723d
00000120: d7b6 a43d c2a5 933c fd86 823c d2da 9fbd
00000130: c3cd b43d f00c ac3d 336c a23d 3412 8d3d
00000140: 73a2 7e3c 190b 88bd ebd3 bc3d f267 a0bd
00000150: d192 16bd 05e8 83bd 624e 013c a07e 133d
00000160: c266 493d 14fc 773d 169e 81bd aa19 5ebd
00000170: 4da8 c8bb 03d4 583e daa9 18bd f4b8 c6bc
00000180: 6e9f 39bd 154e e53d 824c d1bc e0e9 683d
00000190: a4c0 92bd 79ec 483e 188b 09bc b646 5a3d
000001a0: a56b e8bc 65b6 0a3c abd7 b03d dca5 693d
000001b0: a47e cf3d 2c1e 633d dd58 24bd a529 c63d
000001c0: 7196 b93c c8d1 17bd 4a05 863d 95c3 b13b
000001d0: 8e44 cdbd eb2a 823a ee34 113e 3e65 173d
000001e0: 1995 9ebc 7b6e 6e3c 2863 c33d 04d8 95bc
000001f0: b1ce 193d d4d1 72bb 772a a9bc aac3 b43d
00000200: ceb1 88be 564f 60bd 5cb5 fd3d c310 ac3d
00000210: b7de 8c3e 46b8 4bbd 610f d8bc 92e3 453e
00000220: 6f58 9f3d fcf9 61bd 5763 ef3d 8d6c 483d
00000230: c3d5 923d 03c9 9bbd 8f20 643d f797 8d3c
00000240: f42b 553e 2b88 fb3d 9f49 c9bb 31c3 313c
00000250: 43ab 8e3d 7b6a 913e 5efe 793c 1358 373e
00000260: b77e 403c 6743 423d fad4 2b3d af49 f93d
00000270: 43a6 96bd 4f8d 213e a844 ae3e d3da 8c3c
00000280: 4bb0 123d c15a ffbd 1e7e e13d 3a83 263d
00000290: ad26 e93d 5277 403c 1d7d 1a3e 52ac ef3c
000002a0: de62 843c a6e1 6fbb b387 bb3c 25ee 913c
000002b0: 2d81 003e 219b b2bd 05cd 853d 5b53 92bd
000002c0: 9d8f a7bd 89ea 1f3c 37a8 243e 1df2 89bc
000002d0: 845e c83d a4d8 d13c 6b41 b43d e38f b53b
000002e0: 5737 093e 4c45 de3a 0841 833d c5cd 31be
000002f0: 9f9f cd3c aa82 3cbd 9c9e 373d 573c 393d
00000300: 8205 873b 0381 ad3e d3cf a03c 5b49 243e
00000310: 0cc6 76bd 1758 f73b 207a 5fbb 31af cf3d
00000320: cd9a c73d ed43 2c3e 78da 013d 4151 17bd
00000330: 2fbe 9b3d f3ee 093e 37eb 6c3c 3615 78bb
00000340: 0d62 a53c 395b 673e a25e a03c 9c3f 56bd
00000350: cf20 52bc a957 de3d e893 283e bea9 b73d
00000360: 0cab aa3d 3a1a 753e d8b9 083e 0ae0 d3bc
00000370: 1bd4 aebc 1cf3 87bc caab ea3d 1c1e e3bc
00000380: 7dea 2cbd bbb8 0a3d 17fc e83d 9110 7a3c
00000390: 5155 823e 329d ec3d 6525 7f3e 4758 ad3c
000003a0: fb15 103d 2b77 373d bbbf 95bb 0596 b93c
000003b0: 5337 82bb 222b 013c d979 143e 73ec 853d
000003c0: b221 2b3d cd7b 06bd 3c65 2dbd 0d8b 9b3e
000003d0: baf1 53bd 047a ecbc 6461 233e 735f b9bc
000003e0: 6f44 8d3e fa1c 0ebd cdc5 1b3e fcfc 29bd
000003f0: 7aa4 db3d 4f2d 003d 6244 2c3e 49a0 163d
0.285938 -0.019571638 -0.023824181 0.01873617 -0.0132813845 0.034149688 0.032499526 0.009392837
0.18000866 0.07538681 -0.0297636 -0.013081257 0.037405226 -0.05655673 0.09537728 -0.007948534
-0.14725032 0.09948305 0.113075 0.09070499 -0.07733507 -0.040734988 0.020464994 -0.089013785
-0.08127328 0.018166086 0.15353787 0.053874597 0.06895273 -0.04319118 -0.05673457 0.090186864
-0.0115863765 0.121521674 0.09666135 0.07386979 -0.17260061 0.03929613 0.015464252 0.011647205
0.10931326 -0.047475863 0.068084985 0.11172926 -0.047177326 0.09925575 0.022217993 0.054455098
-0.014291642 0.07156199 -0.057188764 -0.014849752 0.17270829 -0.030949403 -0.12655465 -0.029152652
0.027230822 0.015581132 0.039534014 0.049487922 -0.008604912 0.052112363 0.014142994 0.09825251
0.0649 0.4603856 0.0217103 0.08349109 0.026318686 -0.058190137 -0.006619211 0.059188336
0.080426864 0.018023375 0.015933508 -0.078054085 0.088283084 0.08400905 0.079307936 0.068882376
0.015541661 -0.06642742 0.09220108 -0.07832326 -0.03676111 -0.064407386 0.007892223 0.03600943
0.049170263 0.060543135 -0.063289806 -0.054223694 -0.0061235786 0.21174626 -0.037271358 -0.024258114
-0.04531806 0.111965336 -0.025549177 0.056863666 -0.071656495 0.19621457 -0.008394979 0.05329009
-0.028371641 0.008466338 0.086348854 0.05704294 0.10131577 0.055448696 -0.04012381 0.09675912
0.022654744 -0.037065297 0.065439776 0.0054249265 -0.100228414 0.0009931003 0.14180347 0.036961786
-0.019358205 0.014552708 0.09540397 -0.01829148 0.037550632 -0.0037051337 -0.020650132 0.088263825
-0.26698154 -0.05476316 0.12388107 0.084016345 0.27513668 -0.049736284 -0.02637452 0.19325092
0.07780539 -0.055170044 0.116888694 0.048931647 0.07169678 -0.07606699 0.055695113 0.017284377
0.20817548 0.12281831 -0.0061428095 0.01084976 0.06966259 0.2840155 0.0152584 0.17904691
0.011748961 0.04742756 0.041951157 0.12172257 -0.07355931 0.15776561 0.34036756 0.017194187
0.035812657 -0.12468482 0.11010383 0.04065249 0.1138433 0.011747198 0.1508679 0.029256973
0.016160425 -0.0036603003 0.022891855 0.017813751 0.12549277 -0.08720995 0.06533245 -0.07144805
-0.08181689 0.009760507 0.16079794 -0.016839081 0.097836524 0.025615998 0.0880154 0.0055408343
0.13400017 0.0016957908 0.06408888 -0.17363651 0.025100527 -0.04602305 0.044828996 0.04522356
0.0041205296 0.3388749 0.019630348 0.16043608 -0.060247466 0.007548343 -0.0034099892 0.10140837
0.09746323 0.16822787 0.03170249 -0.036942724 0.07604634 0.13470058 0.014460376 -0.003785444
0.020188356 0.22593392 0.019576374 -0.052306756 -0.012825205 0.108565636 0.16462672 0.08967923
0.08333406 0.23935786 0.13352144 -0.025863666 -0.021341374 -0.016595416 0.114585474 -0.027724318
-0.042215813 0.03386758 0.11376207 0.015262739 0.25455716 0.1155342 0.24916609 0.021160258
0.035177212 0.04479138 -0.004569975 0.022654543 -0.0039738803 0.007883819 0.14499606 0.0653924
0.04178018 -0.03283291 -0.042332873 0.30379525 -0.0517442 -0.028866775 0.1595512 -0.022628522
0.27591273 -0.034695603 0.15212174 -0.04150103 0.10724731 0.03129321 0.16822961 0.036773954

layers.1.bias f4 [64]
00000000: daca 9f3c 38ae 99bd 1aaa 973d a089 94bc
00000010: 8676 973c 45f9 4bbd a8c8 57bb 2571 dcbc
00000020: ef46 52bd b2e0 a3bc e417 bc3d e417 273c
00000030: effb a53d 8f2f 333d 5d31 133c 12de c0bc
00000040: 4ff4 b23d 707f 043e 6a7b e93d 1d6f b2bd
00000050: 9f1c 43bc 0c84 063e 0ad2 e83b 7d0d edbc
00000060: 15b5 80bd ebba 0f3e 95d2 c6bc e6b1 98bd
00000070: 5d8b e6bc 3930 d4bd be13 d43d 12f8 ba3d
00000080: b68d e13d c00f 5d3d e25d 8f3c 96cb d63c
00000090: 8ca9 6cbc 001d b03c 9255 283c 29c6 bdbd
000000a0: 12eb 8e3d d1f6 393d 4c56 d63d 2bf9 29be
000000b0: bd83 cb3d 592b aabd bd42 db3d 6762 e13d
000000c0: f9c6 613d 33dc ecbd c35f c23d 6269 643d
000000d0: fc30 e2bd cd3f 253d c703 95bd 2770 323c
000000e0: aa17 b3bd 8be5 d93d 31fa c53d d3a1 5cbd
000000f0: 3610 b73d a7a5 ad3d 76aa ac3c e1e4 763c
0.019505907 -0.07503933 0.07405491 -0.018132031 0.018489134 -0.04979827 -0.0032925997 -0.02690942
-0.05133718 -0.020004604 0.09184244 0.010198567 0.08104693 0.043746527 0.008983937 -0.023543391
0.087380044 0.12939239 0.114004925 -0.087125994 -0.011908679 0.1313631 0.0071051167 -0.028937096
-0.06284539 0.14036147 -0.024270335 -0.074558064 -0.028142625 -0.1036076 0.10355328 0.09129347
0.11013357 0.0539701 0.017500822 0.026220124 -0.01444472 0.021498203 0.010274308 -0.09266312
0.0697843 0.045401398 0.104656786 -0.16598956 0.099372365 -0.08309049 0.10706089 0.11005097
0.055121396 -0.11565437 0.09490921 0.055764563 -0.11044499 0.04034405 -0.07276111 0.010890997
-0.08744748 0.10639485 0.09666861 -0.053865265 0.08938639 0.08478861 0.021077376 0.015069217
